models/best_model.pth (torch, 6709 bytes, 14 tensors)

temporal_encoder.weight f4 [8, 7]
0	0xbdfcf2f9	-0.12351031
1	0xbebebb9d	-0.37252513
2	0xbf09e0e1	-0.5385876
3	0xbf36212b	-0.7114436
4	0x3fa264ef	1.2687052
5	0x3cbf2d81	0.023337128
6	0xb9a903f6	-0.00032237143
7	0x3eaf46f8	0.34233832
8	0x3fce3e39	1.6112739
9	0xbed9b25c	-0.4251889
10	0x3eb6ef1f	0.3572931
11	0x3dde7f35	0.108641066
12	0xbd89deeb	-0.06731971
13	0x3cc77ebb	0.024352422
14	0xbe0c26f1	-0.1368673
15	0x3e665a71	0.22495438
16	0x3e8d053e	0.27543062
17	0x3e3ade35	0.18248828
18	0x3f5b653a	0.85701334
19	0xbd17e2ad	-0.03708141
20	0x3e087d7b	0.13329117
21	0xbdce2480	-0.100655556
22	0xbe33fc63	-0.17576747
23	0xbf438b1d	-0.76384145
24	0xbf4f78b2	-0.8104354
25	0xbecba0ea	-0.39771205
26	0xbbfda9e5	-0.0077412003
27	0x3c822be7	0.015890075
28	0x3f5d75fa	0.8650814
29	0xbf0c59a3	-0.54824275
30	0x3f2ab812	0.6668712
31	0xbf34748c	-0.70490336
32	0x3ebb8004	0.36621106
33	0xbca24496	-0.019808095
34	0xbd2864d7	-0.041111793
35	0xbf785a52	-0.9701282
36	0x3f2f5fd7	0.68505615
37	0x3f631f55	0.88719684
38	0xbf3cc2a0	-0.73734474
39	0x3e380820	0.1797185
40	0x3ca8604f	0.020553736
41	0xbe181715	-0.14852555
42	0xbf84074c	-1.0314727
43	0xbf59a418	-0.8501601
44	0x3e495aa9	0.1966349
45	0xbe8c7bc6	-0.27438182
46	0xbd917063	-0.07101514
47	0xbd3c1228	-0.045915753
48	0x3e292040	0.16516209
49	0xbebe8445	-0.3721029
50	0xbf87f78e	-1.0622423
51	0xbf20c57c	-0.6280134
52	0x3f61164e	0.8792466
53	0x3ea963e5	0.33084026
54	0xbcd978e7	-0.026546909
55	0xbe2393e0	-0.15974379

temporal_encoder.bias f4 [8]
0	0xbd82010f	-0.06347858
1	0xbcfd1960	-0.030895889
2	0x3e18fd34	0.1494034
3	0xbd8786c8	-0.06617504
4	0xbdef12d7	-0.11673515
5	0xbf1e5baf	-0.6185865
6	0xbf2b7ba7	-0.66985554
7	0xbed77366	-0.4208023

gat.att_src f4 [1, 1, 8]
0	0x3efd5b25	0.494836
1	0x3eaad0a9	0.3336232
2	0xbf10ac9b	-0.56513375
3	0xbee84398	-0.4536407
4	0xbea5f6c9	-0.32414845
5	0xbf1fb1cc	-0.6238067
6	0x3de19065	0.11013869
7	0xbf0de0dd	-0.5542124

gat.att_dst f4 [1, 1, 8]
0	0x3c666653	0.014062482
1	0xbd5d3a61	-0.054010753
2	0xbefa6618	-0.48906016
3	0x3f452cf6	0.7702173
4	0xbd647290	-0.055773318
5	0x3f349647	0.70541805
6	0x3dfdb845	0.12388662
7	0x3eb0ffa9	0.34570053

gat.bias f4 [8]
0	0x3f16ca41	0.58902365
1	0x3f96cb0f	1.1780719
2	0x3f63caa3	0.88981074
3	0x3f7cd011	0.98754984
4	0x3f83fe5b	1.0311998
5	0x3eb758f0	0.3581004
6	0x3eea8bff	0.45809934
7	0x3f04cac7	0.51871914

gat.lin.weight f4 [8, 8]
0	0x3e777265	0.24164732
1	0x3b50e6a9	0.0031875765
2	0xbe396e5f	-0.1810851
3	0xbdb21764	-0.08695868
4	0xbe112e06	-0.14177713
5	0x3e952dec	0.29136598
6	0xbde6b76c	-0.11265454
7	0xbf14985c	-0.5804498
8	0x385d233e	5.2723328e-05
9	0x3bf2460d	0.0073936046
10	0xbccc00b9	-0.024902688
11	0xbc38db90	-0.0112828165
12	0x3ec8678d	0.39141503
13	0xbf0cc591	-0.5498896
14	0x3edbe858	0.42950702
15	0xbe38b051	-0.1803601
16	0x3e8f3e96	0.27977437
17	0x3da655f9	0.08121867
18	0x3e7c1fd5	0.24621518
19	0xbed72574	-0.42020762
20	0x3f50f02a	0.8161646
21	0xbe77559b	-0.2415375
22	0x3eaad51a	0.3336571
23	0x3ec78346	0.3896734
24	0xbc9b0790	-0.018924505
25	0xbd33a998	-0.04386291
26	0xbd56ae87	-0.052412536
27	0xbe331c15	-0.17491181
28	0x3e98147c	0.29703128
29	0x3ec1404d	0.3774437
30	0xbf14e89f	-0.5816745
31	0x3d2f9464	0.042866126
32	0xbcb1fd52	-0.021727238
33	0x3c8c5176	0.017128687
34	0x3d255799	0.040366743
35	0x3ec9b4eb	0.39395842
36	0x3ef62bab	0.4808019
37	0xbe769f85	-0.2408429
38	0xbd83b79d	-0.06431506
39	0xbf1a7dc6	-0.60348165
40	0x3e060e18	0.13091314
41	0x3d49635b	0.04916702
42	0x3dc1f0eb	0.094697796
43	0xbe79dbbc	-0.24400228
44	0xbeb7bd31	-0.3588653
45	0xbe9c327d	-0.3050727
46	0xbf18e778	-0.59728193
47	0xbddf8f17	-0.10915964
48	0xbd8d8a04	-0.0691109
49	0xbdb0a18c	-0.086245626
50	0xbe64c97f	-0.2234249
51	0xbd4abc13	-0.049495768
52	0xbf0e88be	-0.556774
53	0xbf09392b	-0.53602856
54	0xbef1ee25	-0.47252002
55	0x3d26ec95	0.040752966
56	0x3e4f9e83	0.20275311
57	0x3d7be2b5	0.0614955
58	0x3d5b2a08	0.05350688
59	0x3dc88b81	0.09792233
60	0xbdc4c821	-0.09608484
61	0xbd60fc81	-0.054928306
62	0xbed21bce	-0.41036838
63	0xbf28d38b	-0.6594779

graph_norm.weight f4 [8]
0	0x3ea5fed1	0.32420972
1	0x3f46aef5	0.77610713
2	0x3f14fa2f	0.5819425
3	0x3f3d7a34	0.7401459
4	0x3f4b3781	0.7938157
5	0x3ee941be	0.4555797
6	0x3f445760	0.76695824
7	0x3f0b3fd8	0.5439429

graph_norm.bias f4 [8]
0	0xbeb314e9	-0.3497689
1	0xbe0c6d1f	-0.13713501
2	0x3f1396bd	0.57651883
3	0xbd9f8d09	-0.07790572
4	0x3e4c5508	0.19954312
5	0xbf0a2ea6	-0.5397743
6	0x3f88eb5f	1.069683
7	0x3ee5c333	0.44875488

graph_norm.running_mean f4 [8]
0	0x3f2e62b3	0.68119353
1	0x3f978eaf	1.1840419
2	0x3f81e7fd	1.0148922
3	0x3f805107	1.0024728
4	0x3f832b63	1.0247616
5	0x3f4ff065	0.8122619
6	0x3f5ac294	0.8545315
7	0x3f43febd	0.76560575

graph_norm.running_var f4 [8]
0	0x3e9c441d	0.30520716
1	0x3e089007	0.13336192
2	0x3f4007de	0.75012004
3	0x3dd92c05	0.10604099
4	0x3e0d982d	0.13827582
5	0x3f4cc0b1	0.79981524
6	0x3f687c4e	0.90814674
7	0x3f0a58cb	0.5404174

fusion.0.weight f4 [8, 16]
0	0xbd6b3080	-0.0574193
1	0xbe335f97	-0.17516933
2	0xbd85fe59	-0.065426536
3	0xbee5c5a2	-0.44877344
4	0xbe208bf7	-0.15678392
5	0xbed096bc	-0.4074
6	0xbe1570b9	-0.14593782
7	0x3e2b5cb5	0.16734584
8	0xbe356739	-0.17715158
9	0xbdb7aaa8	-0.08968097
10	0x3e6493ed	0.22322054
11	0xbd48d255	-0.049028713
12	0x3d8c9267	0.068638615
13	0xbe4734ba	-0.19453707
14	0x3ea7a26a	0.327411
15	0x3e565f78	0.20934856
16	0xbe0d7261	-0.13813163
17	0x3cffb353	0.031213438
18	0xbde8efc9	-0.113738604
19	0x3e279f9a	0.16369477
20	0x3e71df31	0.23620297
21	0xbed2ece9	-0.41196373
22	0xbedef752	-0.43548065
23	0xbe3c9312	-0.18415478
24	0x3c334073	0.010940659
25	0xbe124735	-0.14284976
26	0x3d28b3c8	0.041187078
27	0xbc6d5fed	-0.0144882025
28	0xbd77172d	-0.060324837
29	0xbe10860c	-0.14113635
30	0x3e89cd2b	0.26914343
31	0x3de4e2ee	0.11176096
32	0x3e158f44	0.14605433
33	0xbe9ae587	-0.3025324
34	0xbdf14a5e	-0.117817625
35	0x3f202457	0.6255545
36	0xbd7dfafc	-0.062006935
37	0xbdd4b9a2	-0.10386969
38	0x3e18184a	0.14853016
39	0x3e4f5640	0.20247746
40	0x3d983b75	0.074332155
41	0xbe3a1bf5	-0.18174727
42	0x3bc66f1c	0.0060557257
43	0xbc282081	-0.010261656
44	0xbdc810bf	-0.09768819
45	0xbdf4466b	-0.11927494
46	0x3e981a30	0.2970748
47	0x3d9f0aa3	0.07765701
48	0x3eee9cca	0.46603996
49	0xbd17c165	-0.03704967
50	0x3e05766b	0.13033454
51	0xbd8d13cd	-0.06888542
52	0x3ec314ab	0.38101706
53	0x3d1517e4	0.036399737
54	0xbe3ac047	-0.1823741
55	0xbe48304a	-0.19549671
56	0xbe312518	-0.17299306
57	0xbe034b63	-0.12821727
58	0x3e6e875a	0.2329382
59	0xbd57c781	-0.052680496
60	0x3d4fe718	0.050757498
61	0xbe6efdab	-0.23338954
62	0x3eccc8f9	0.3999708
63	0x3e755345	0.23957546
64	0xbe8e1330	-0.27749014
65	0xbdcf05e2	-0.10108544
66	0x3d8fa24c	0.070133775
67	0xbe6bd5cd	-0.23030777
68	0xbe5c6786	-0.21523866
69	0x3e329cd5	0.17442639
70	0xbde5add7	-0.11214798
71	0xbe2e50cc	-0.17023009
72	0xbce8e0ce	-0.028427508
73	0xbe6cd32f	-0.23127435
74	0x3ded4ee1	0.115873106
75	0xbd07be47	-0.033140447
76	0xbd926f84	-0.07150176
77	0xbe832c48	-0.2561972
78	0x3ef34ff4	0.47521937
79	0x3e5d8efc	0.21636575
80	0xbe4d46c5	-0.20046528
81	0x3e7b827e	0.24561498
82	0x3e705367	0.23469315
83	0xbf054c5d	-0.52069646
84	0x3d581db7	0.052762713
85	0x3df0b299	0.11752815
86	0xbe596fe4	-0.21234089
87	0xbe37a3ec	-0.17933625
88	0xbd501d6d	-0.050809313
89	0x3e35e822	0.17764333
90	0xbc112d96	-0.008860966
91	0x3c20967a	0.009801501
92	0x3dcab243	0.09897282
93	0x3e267827	0.16256772
94	0xbe9a7b2f	-0.30172107
95	0xbde7210c	-0.112856
96	0xbe4955dd	-0.1966166
97	0x3deca7c7	0.115554385
98	0xbe6a6bb9	-0.22892655
99	0x3e8a4e66	0.27012938
100	0xbd5b53c4	-0.053546682
101	0xbd08f9fc	-0.03344153
102	0xbe59b602	-0.21260837
103	0xbe990da0	-0.29893208
104	0xbe4e7bc5	-0.20164402
105	0xbd64e01b	-0.055877786
106	0x3e720bec	0.2363736
107	0xbd4fda76	-0.05074545
108	0x3dc2e0fe	0.0951557
109	0xbe33ada9	-0.17546715
110	0x3e9115f0	0.2833705
111	0x3e4d1402	0.20027164
112	0x3ea341ab	0.31886038
113	0x3e6f5927	0.23373853
114	0x3e0ae7fc	0.13565058
115	0x3de71df4	0.1128501
116	0xbf0e331a	-0.55546725
117	0xbdd89eb6	-0.10577147
118	0xbebd1b52	-0.36934906
119	0x3d1d1fcf	0.038360413
120	0xbcfe88ec	-0.031071149
121	0xbe0abcfd	-0.13548656
122	0x3daa4ecf	0.08315813
123	0xbcb9a33b	-0.022660842
124	0xbd09e4d7	-0.033665504
125	0xbe222f36	-0.15838322
126	0x3e94fa11	0.29097036
127	0x3e0ce8af	0.13760637

fusion.0.bias f4 [8]
0	0x3e5e6ec2	0.21721938
1	0x3ec4d9a4	0.38447297
2	0x3dc3612c	0.095400184
3	0x3f42b663	0.7605955
4	0x3ec7f8bb	0.39056954
5	0xbd9b9daa	-0.075984314
6	0x3f198794	0.599725
7	0x3ef62717	0.48076698

fusion.2.weight f4 [5, 8]
0	0x3d803e46	0.06261878
1	0x3f3c3d18	0.7353072
2	0xbe5a094a	-0.21292606
3	0x3e0b405a	0.13598767
4	0xbe85a82b	-0.26104864
5	0x3e5e6c85	0.21721084
6	0xbe030012	-0.12792996
7	0xbe26a10b	-0.1627237
8	0xbeb8dc6a	-0.36105663
9	0xbc5b6f29	-0.013393202
10	0xbea7e2f6	-0.32790345
11	0xbd1a1cae	-0.037625007
12	0x3e21eff6	0.15814194
13	0x3eab6c26	0.33480948
14	0x3e386b8b	0.18009774
15	0x3ec2a566	0.38016814
16	0x3b90e701	0.004422069
17	0xbc6bee10	-0.01440002
18	0xbe954f95	-0.2916228
19	0x3e28bc58	0.16478097
20	0x3f03ffb9	0.51562077
21	0x3e986f7f	0.29772565
22	0xbe5bd44d	-0.21467705
23	0xbf0b9d1f	-0.5453662
24	0x3f0b2ea2	0.5436803
25	0x3c2ec375	0.010666718
26	0xbe831095	-0.2559859
27	0xbe97bc65	-0.2963592
28	0x3e13650f	0.1439402
29	0x3e85b75f	0.26116464
30	0xbeab8781	-0.3350182
31	0x3e159f61	0.1461158
32	0x3cfe8a2b	0.031071743
33	0xbde6a29d	-0.11261485
34	0xbe53585a	-0.20639172
35	0x3f01d5d5	0.50716907
36	0xbdfe783c	-0.12425277
37	0x3e57ad65	0.21062239
38	0xbf0f2cbb	-0.5592763
39	0x3eac202a	0.3361829

fusion.2.bias f4 [5]
0	0xbf03c14a	-0.5146681
1	0xbeb17ed5	-0.34667078
2	0x3e4fe23e	0.20301148
3	0x3c98c61b	0.018649152
4	0xbe028e08	-0.12749493
