models/hybrid_lstm_gat_best.pth (torch, 95674 bytes, 76 tensors)

temporal_encoder.0.weight f4 [32, 7]
000000 f2 1c 9a be 71 3f 89 3e d3 ef ae 3e 06 76 9c bd
       -0.3010021 0.26806214 0.34167346 -0.07639699
000010 e3 e4 a7 be cd bf c2 bd ab 86 6f 3e e1 cf 96 3a
       -0.32791814 -0.09509239 0.23391216 0.0011506045
000020 f5 3c 37 3d f3 ae 92 3d e2 5f ce bd 66 98 9d be
       0.044735868 0.07162275 -0.10076882 -0.30780333
000030 b3 15 c7 bd fc 7f a4 be a9 e5 d2 bd d9 a0 d4 3c
       -0.09720936 -0.32128894 -0.102977104 0.025955604
000040 ea 68 15 be 2e 99 a1 be a7 f6 ac 3d 40 90 1c be
       -0.14590803 -0.3156218 0.08445483 -0.15289402
000050 74 9c a3 be f3 59 16 bd 38 2f aa 3e 67 e9 59 3e
       -0.31955302 -0.036706876 0.3323915 0.21280442
000060 fd f7 a7 3e 6f f9 8a 3e 46 86 e3 bd 61 eb 75 be
       0.32806388 0.27143428 -0.11109595 -0.24015571
000070 15 99 95 bd 8b ba 23 3d ce fb 65 be 3c 8d c3 be
       -0.07304589 0.039972823 -0.22459337 -0.3819369
000080 fb 0e c2 3e db 28 4c be d4 31 20 3e 05 cf 97 3e
       0.37902054 -0.1993746 0.15644008 0.2965013
000090 21 5f c1 3e 23 e3 01 3c 02 8a 3d be 93 59 c1 3e
       0.3776789 0.007927689 -0.18509677 0.37763652
0000a0 4e 69 d8 3c fb ed 60 3c e9 1d 4e 3e 0b 56 99 bd
       0.0264174 0.013728614 0.20128597 -0.074871145
0000b0 99 71 2f be d7 4a 15 3d f2 a7 4d be fe 1f 2d 3e
       -0.17133178 0.036448326 -0.20083597 0.16906735
0000c0 e6 5d 4e 3e 57 fc 77 3e 18 3d 81 be b7 59 89 be
       0.20153007 0.24217354 -0.25241923 -0.2682626
0000d0 a1 72 b7 be e3 f4 cd bd f8 5e ef 3d ae fe 31 3c
       -0.35829642 -0.10056474 0.11688036 0.010863943
0000e0 d3 f7 08 3d 45 0c df bc cf c5 ab 3e 47 68 dc bd
       0.03343947 -0.02722753 0.33549353 -0.10762077
0000f0 07 9a c7 be 37 5f 17 3e 12 81 76 be 58 17 5c be
       -0.389847 0.14782415 -0.24072674 -0.2149328
000100 0d 1b 52 3e 92 8f a6 3e 73 4c 65 be 3e c1 e1 3d
       0.20518132 0.3253141 -0.22392444 0.11023186
000110 79 06 e1 bd b6 bf 2d 3e 37 af 12 be f8 ef 1b 3e
       -0.10987563 0.16967663 -0.14324652 0.1522826
000120 92 38 0f be 9b 99 bb be df f8 92 be 1a f1 93 3e
       -0.13986424 -0.3664063 -0.287055 0.28894883
000130 ef eb 9f 3e 80 f0 72 3e 06 23 b4 3d 1a e0 46 be
       0.3123469 0.23724556 0.08795743 -0.19421425
000140 aa c7 74 be c9 b7 c2 be ed 74 42 be 15 14 b2 be
       -0.23904291 -0.38030842 -0.18989916 -0.34780946
000150 57 e2 e9 bd cb b1 aa 3e 88 7e c4 be 34 e7 17 be
       -0.11420124 0.3333877 -0.38377786 -0.1483429
000160 86 35 06 3e 0b 7a bd 3e 3d 07 3a 3e 26 5a 44 be
       0.13106355 0.37007174 0.18166824 -0.19175014
000170 35 00 16 be a6 a7 06 3e 1e a3 1b be c7 71 54 3d
       -0.14648516 0.1314989 -0.15198943 0.05186632
000180 62 23 33 3d b1 8d 35 bd a4 2b fb bd 74 2b 1c 3e
       0.043734916 -0.04432458 -0.12264183 0.15250951
000190 f8 52 c6 3d 88 f7 e2 bc dd 47 69 3e 3f 58 a2 bd
       0.09683794 -0.027705923 0.2278132 -0.07926988
0001a0 58 ef 22 be 76 30 2b 3e 98 6b e7 bd c0 82 fd ba
       -0.15911615 0.16717705 -0.11299819 -0.0019341335
0001b0 e5 5c 53 be 3d ec 41 be 3d 05 a3 3e 37 73 4d be
       -0.20640905 -0.18937774 0.31839934 -0.20063482
0001c0 57 3b bb bc e1 5e 9f 3e 4e bf 5f 3e 4f d8 d0 bd
       -0.022855444 0.31127074 0.2185032 -0.101975076
0001d0 84 b5 b1 3d 43 13 bb be 5e 45 58 3e 0e 5b 1b 3d
       0.086771995 -0.36538133 0.21120211 0.037928633
0001e0 06 a5 8a bd 33 77 1f be 05 49 81 be dc 49 ab 3d
       -0.06769757 -0.15572815 -0.25251022 0.08363697
0001f0 6e 6f 13 3e 49 a9 97 bc 53 94 69 3e 11 c8 a1 3e
       0.14397976 -0.018513339 0.22810487 0.3159795
000200 65 40 88 3e 12 c3 b0 3d 23 45 aa 3e bd e0 39 3e
       0.2661163 0.08630957 0.33255872 0.18152137
000210 88 44 83 3d 6f f8 c0 3e 46 06 aa 3e 90 8f b0 be
       0.06409556 0.3768954 0.3320791 -0.3448453
000220 ab 57 c1 3e 34 7e 1c bd 7e d0 9c 3e 93 c3 52 be
       0.37762198 -0.038206294 0.30627817 -0.20582418
000230 dd f9 ca be 6f 02 d7 3c 2d da 06 be 84 31 91 3e
       -0.39643756 0.026246278 -0.13169165 0.2835809
000240 08 0c a5 3e ca 60 86 bd 7a a6 a2 be 36 26 cc 3d
       0.32235742 -0.0656143 -0.31767637 0.09968226
000250 5f 85 01 3d be e9 06 3e 48 d3 8c 3b a1 94 83 bd
       0.031621333 0.13175103 0.0042976476 -0.06424833
000260 1b 88 c6 be 85 ac a4 be 87 1c 15 3b df 16 2c 3e
       -0.38775715 -0.32162872 0.00227526 0.168056
000270 ce 1a aa 3e c7 0e b3 be 74 ae 15 3e c4 2d 33 bd
       0.33223575 -0.34972212 0.1461733 -0.043744817
000280 ba 9b 59 3e 0c cb b5 3e 4d a7 8e 3e 1d ee 57 bd
       0.21250811 0.35506475 0.27862015 -0.052717317
000290 35 bd e1 3e 9e 48 7a 3d 49 bb a7 bd db f7 32 3d
       0.44089666 0.06110441 -0.08190019 0.043693405
0002a0 aa 3d 4f be 8b 3d 95 3d 1c 97 82 be e0 b7 22 be
       -0.20238367 0.07287129 -0.25505912 -0.15890455
0002b0 09 eb e8 3e 81 5b 2e bd 98 a3 9a 3e 46 60 47 be
       0.45491818 -0.042567734 0.30202937 -0.19470319
0002c0 15 47 21 be 1b 62 74 3e 3b 22 26 3e 33 71 9b be
       -0.15749772 0.2386555 0.16223995 -0.30359802
0002d0 14 6f 93 3e 09 d4 cc bd ec d1 3a bd f0 01 95 be
       0.28795683 -0.1000138 -0.045610353 -0.2910304
0002e0 8f c3 db bc 2e 8c af bd c5 2b a2 bc f4 0f bd bd
       -0.026826648 -0.08571659 -0.019796262 -0.092315584
0002f0 c2 8a 7a bd 03 2f 18 3d 40 a8 b1 be 19 94 bc 3e
       -0.061167486 0.03715421 -0.34698677 0.3683174
000300 fc 14 a3 3d 2c e3 c2 3e 93 3b 83 3d 4d c2 9a bd
       0.07962987 0.38063943 0.06407847 -0.07556591
000310 9d 0c 1d 3e b2 de 86 be 50 36 08 3e ed f1 04 3e
       0.15336843 -0.26341778 0.13301969 0.12982912
000320 f3 25 93 be 85 bf a3 be 0c 29 53 3d 6a f0 33 3e
       -0.2873989 -0.31982055 0.051552817 0.1757218
000330 8e b4 e9 bd e8 39 92 be 99 67 a5 be b4 eb b4 3e
       -0.11411391 -0.28559804 -0.323056 0.35336077
000340 4a 0a aa be 74 4b 85 be c5 09 43 be 16 aa 16 be
       -0.33210975 -0.2603413 -0.19046696 -0.1471332
000350 f6 aa f4 3d 05 51 72 3d a0 28 73 3e 65 ac 1c be
       0.11946671 0.059159297 0.23745966 -0.15300138
000360 ec a7 6e 3e 6d b6 58 bd b6 3f 61 be 43 69 d1 bd
       0.23306245 -0.05290835 -0.2199696 -0.10225155
000370 27 c7 14 3e 01 25 02 3d cd 16 0e 3e e4 ec 15 bd
       0.14529096 0.03177357 0.13875885 -0.03660287

temporal_encoder.0.bias f4 [32]
000000 77 50 f7 bd 61 48 0c bd 9e ea 83 be 05 c9 50 be
       -0.12075894 -0.034248713 -0.25764936 -0.20389183
000010 01 4a 89 3e b6 18 94 3e 63 7b 63 be 18 39 81 3e
       0.26814273 0.28925103 -0.22215037 0.25238872
000020 25 28 99 be 7b 95 a1 be dd 22 a2 be ac 12 24 3e
       -0.2991344 -0.31559357 -0.31667224 0.16022748
000030 82 eb 18 3e 25 20 7f 3e 05 79 20 be de c2 8f 3e
       0.14933589 0.24914606 -0.15671165 0.2807836
000040 35 fe a0 3d e0 ea 1d 3e 55 a3 23 3e 5d c5 b0 3e
       0.07860986 0.15421629 0.15980275 0.34525576
000050 bc b1 1f be 29 03 78 3e 0a ad ac 3c cf be 36 bd
       -0.15595144 0.24219956 0.021078605 -0.044615563
000060 b3 d4 b8 3e da 19 4d be 9c 1e 5e be eb 6e 2e be
       0.36099777 -0.20029393 -0.21691364 -0.170345
000070 79 84 9a be cf 9f 40 be 47 3b b3 be ed 6e c3 bd
       -0.30179194 -0.18810962 -0.35006163 -0.09542642

temporal_encoder.1.weight f4 [32]
000000 af 6e 7b 3f 0f e2 7e 3f a9 16 7a 3f 3f b1 7d 3f
       0.98215765 0.9956369 0.97690827 0.9909858
000010 8b ef 80 3f c0 63 89 3f cf 37 7f 3f 4d 90 7a 3f
       1.0073103 1.0733566 0.9969453 0.97876436
000020 91 46 7a 3f 8d f0 77 3f bc 66 7b 3f 58 b3 80 3f
       0.97763926 0.96851426 0.98203635 1.0054731
000030 50 c6 80 3f 28 53 7b 3f ab b1 7d 3f 96 fb 78 3f
       1.006052 0.9817376 0.99099225 0.9725889
000040 ba f0 80 3f f0 d6 7c 3f 22 68 7d 3f 64 27 7a 3f
       1.0073464 0.9876547 0.9898702 0.97716355
000050 de 0b 7d 3f 1d 4f 7b 3f 3c 7d 86 3f 29 8c 7e 3f
       0.9884623 0.9816759 1.0506968 0.9943262
000060 95 e6 77 3f 08 8e 7a 3f 1f bf 7b 3f 92 03 7c 3f
       0.96836215 0.9787297 0.983385 0.9844295
000070 d1 a4 7b 3f af d2 75 3f e0 5e 7c 3f 11 b0 7f 3f
       0.98298365 0.960246 0.9858227 0.9987803

temporal_encoder.1.bias f4 [32]
000000 56 f1 c1 ba 3d e0 dd bb bf e5 28 3b 4f 9f 80 3b
       -0.0014796655 -0.006771116 0.0025771705 0.003925241
000010 bd d1 21 3c 7d 7e 8c 3d 6b c8 61 bc 2d 55 6e bc
       0.009876666 0.06860063 -0.0137806935 -0.014546675
000020 f2 cc 8f bc 2c ca 39 bc 5f 1f d3 bb 6d e9 55 3b
       -0.01755378 -0.011339705 -0.0064429487 0.0032640353
000030 29 3a af 3b 58 1b 80 3b 74 48 d8 bb 01 c8 98 bc
       0.0053475094 0.0039095096 -0.006600434 -0.018650057
000040 54 d9 5c 3c 38 5b 08 bc b5 18 5d bb a7 a9 b8 b9
       0.013479549 -0.0083225295 -0.003373665 -0.00035221616
000050 3c 04 dc 3b a3 01 bb bb a2 1d 1c 3d 4b 1c ff 3c
       0.006714372 -0.005706982 0.038114198 0.03114142
000060 2c 8c ae bc 47 dc 58 bc 00 be 12 bc 1a 4b a7 bc
       -0.021307074 -0.013236112 -0.008956432 -0.020421553
000070 a0 88 5b bc 61 af 10 bd dc e8 85 bc 6a ce 23 3b
       -0.013399273 -0.035323504 -0.016346388 0.0024994859

temporal_encoder.1.running_mean f4 [32]
000000 da b1 18 c0 01 66 c0 bf ad 38 33 c0 c1 7a 09 c0
       -2.3858552 -1.5031129 -2.8003342 -2.1481173
000010 40 b0 78 c0 eb c8 48 3f 2e d1 37 40 a5 e5 28 40
       -3.8857574 0.78431576 2.8721423 2.6390164
000020 3b b2 3d 40 ad e3 30 c0 14 ef 9f 40 3a 72 44 c0
       2.9640033 -2.7638962 4.9979343 -3.0694718
000030 59 b8 e8 40 47 f9 9a 3f 17 ae c4 bf 47 f8 dc 40
       7.2725034 1.2107323 -1.5365628 6.9053073
000040 c7 67 ef c0 8d e8 44 40 a0 65 67 40 e7 a7 d7 40
       -7.481418 3.0766938 3.6155777 6.739246
000050 5c 2b 84 bf 3e 47 e0 c0 11 d9 93 bf f3 30 e2 bf
       -1.0325732 -7.0086966 -1.1550618 -1.7671188
000060 33 27 5f bf 2b dc b4 40 34 50 f9 bf 8d fb 93 3f
       -0.8716919 5.651876 -1.9477601 1.1561142
000070 a5 a6 d7 c0 ab 45 cc c0 3c cc 6f c0 85 b6 2e 40
       -6.7390924 -6.3835044 -3.7468405 2.72989

temporal_encoder.1.running_var f4 [32]
000000 e8 cc 41 40 70 48 85 40 41 93 cf 40 36 2c 62 40
       3.0281315 4.1650925 6.4867253 3.5339484
000010 55 be d8 40 f1 45 6e 3f b8 3a a4 40 85 8d 56 40
       6.773234 0.9307547 5.132168 3.3523877
000020 fd 9f ac 40 b5 0c 4f 40 9f 15 70 41 1d 43 0e 41
       5.39453 3.2351506 15.005279 8.891385
000030 1a 55 b0 41 43 5f 1e 3f ee 38 b5 3f be 2e 93 41
       22.041553 0.6186411 1.4157999 18.397823
000040 87 5f c1 41 a2 7b 71 40 fc 13 c9 40 75 8f 75 41
       24.171644 3.773171 6.2836895 15.347524
000050 2b d5 2e 40 78 85 c7 41 c6 08 04 40 b6 81 49 40
       2.7317607 24.94017 2.0630355 3.148542
000060 0e d0 1c 40 c0 7c 5f 41 64 47 d1 3f 70 4e 3e 3f
       2.4501987 13.967957 1.6349912 0.74338436
000070 95 9a 80 41 68 f6 93 41 23 84 b1 40 90 03 54 40
       16.07548 18.495316 5.54738 3.3127174

temporal_encoder.4.weight f4 [32, 32]
000000 15 44 22 bd 12 83 21 3c c9 7e 79 3c 42 57 98 3d
       -0.03961571 0.00985791 0.015227982 0.07438518
000010 df 09 d2 bd fb 73 02 be af 0d 28 bd 24 7b 81 3d
       -0.10255789 -0.12739556 -0.041028675 0.06322315
000020 64 ae 90 bd 1a 5b 1b 3b ec 82 af bd 5f e8 88 bd
       -0.07064512 0.0023705424 -0.08569893 -0.06684946
000030 54 40 d7 bc ff 11 bc 3d 5c 34 8e bd 63 f0 64 bd
       -0.026275791 0.0918312 -0.069435805 -0.055893313
000040 13 3b 0e bd a5 41 53 3d 10 2a e0 3d b1 56 7c bd
       -0.034724306 0.051576275 0.10945523 -0.061606113
000050 44 29 0c bd 3c 9f 9a 3d 1e 5e 14 be 83 1e 29 be
       -0.03421904 0.07549903 -0.14489028 -0.16515546
000060 1f 97 93 3d af db ef 3d d0 f3 27 bd a5 56 00 be
       0.072065584 0.11711823 -0.041004002 -0.12533052
000070 6a ef 52 bd 87 aa ed 3d 43 5a 0b be b8 30 e0 3d
       -0.051497854 0.11604791 -0.13608651 0.10946792
000080 a5 b6 c3 3d 13 4b 7e 3d c2 d0 38 be 77 16 32 bd
       0.09556321 0.062083315 -0.18048385 -0.043478455
000090 ff cc 90 3c 54 1b 31 3e e9 60 da bc c6 32 16 be
       0.017675875 0.17295581 -0.026657538 -0.14667806
0000a0 e3 a1 8b 3d 7a 7e 11 be cb 4e fb 3c fd a2 c6 3d
       0.06817987 -0.14208403 0.03067722 0.09699056
0000b0 17 e8 74 3c 0d cc e4 bd fc e9 04 3e 50 06 20 be
       0.014947913 -0.11171732 0.12979883 -0.15627408
0000c0 5d 27 aa 3d 55 b3 89 bd cd a6 d2 bd a6 da 1d 3e
       0.08308289 -0.06723658 -0.10285721 0.15415439
0000d0 7d 3f a1 3d e6 e8 05 be 12 77 9f 3d 2c 2d 4e 3e
       0.078734376 -0.13077125 0.07786383 0.20134419
0000e0 82 31 35 3e 76 9b 06 be 18 17 e8 bd 90 e1 0b 3e
       0.17694667 -0.13145241 -0.1133253 0.13660264
0000f0 5e 94 35 3e 6a f4 8f 3d ff 0c 80 3d 02 65 48 3d
       0.17732379 0.0702904 0.06252479 0.048924454
000100 af d3 21 be 77 ed 1e bd 43 fc 6a bd 09 76 17 bd
       -0.15803407 -0.038800683 -0.05736948 -0.0369778
000110 86 6d fd 3d 31 dc 36 3e 9d cd 31 be 1d 97 f9 3d
       0.123744056 0.17857434 -0.17363591 0.12187026
000120 73 97 09 3e 39 46 31 3d 7b ea ad 3d 4f 4d de bd
       0.1343668 0.04327986 0.08491989 -0.10854589
000130 6d 7a 1c 3e a2 f9 ca bd ee 6c d4 3d 5d 78 15 be
       0.15281077 -0.09910895 0.10372339 -0.14596696
000140 58 c1 2d 3d 7c 83 2e 3b 4e 04 ea bd e3 e3 30 3e
       0.042420715 0.0026628664 -0.11426602 0.17274432
000150 e2 96 b9 3b 9a 1e 3e 3d f6 c5 88 3b 9a af cd bd
       0.0056637386 0.046415903 0.0041739894 -0.10043259
000160 2c 05 74 bc 09 a0 78 bd 25 a7 43 bd 65 e9 15 be
       -0.014893811 -0.060699496 -0.047766823 -0.14639814
000170 7d 5b 22 be f6 71 01 3e 6b 8b 06 3e 4d 5f d3 bd
       -0.15855213 0.12641129 0.13139121 -0.103209116
000180 ce 12 e9 3c 74 05 4f bd fe b3 3a 3e 16 32 a6 3d
       0.02845135 -0.05054231 0.18232724 0.08115022
000190 d6 ac f9 3d b6 73 f6 bd 14 35 93 bd 4c ce b0 bc
       0.12191169 -0.12033789 -0.07187858 -0.021582745
0001a0 8d fa 0e 3e ea f6 bd bd 45 d8 4e be 7b d0 22 3d
       0.13962765 -0.09275611 -0.20199688 0.039749604
0001b0 00 fc ee bd f5 f8 ea 3d f0 f8 08 3e dd 26 b5 bc
       -0.11669159 0.11473266 0.13376212 -0.022113258
0001c0 e1 49 e4 bd 97 37 94 bc a9 8c e8 bd 3b fe 49 bd
       -0.11146904 -0.018092914 -0.11354954 -0.04931472
0001d0 19 c5 f9 3d 14 0a f8 bd 02 13 42 3d 32 ce 61 3d
       0.121957965 -0.12111297 0.04738141 0.055128284
0001e0 df c0 1c 3d 47 2d ee bd 9d aa a1 bd 3f 15 98 bb
       0.038269874 -0.1162973 -0.0789387 -0.0046412046
0001f0 ee 5b f1 bc 8a d9 0e 3e 23 d3 0b 3d 87 11 09 be
       -0.02946278 0.13950172 0.034136903 -0.13385592
000200 f4 c5 b7 bc 4c 33 08 bd a8 20 a0 3d 3b ff f3 bd
       -0.022433259 -0.033252046 0.07818729 -0.11913916
000210 d4 69 78 3d cf ff 25 bc aa cf 41 bd a3 b5 25 be
       0.0606478 -0.01013179 -0.047317185 -0.1618257
000220 f4 92 03 be 30 59 80 bc 1a 18 78 3d bc 8b b0 3c
       -0.12849027 -0.015667528 0.06056986 0.021551006
000230 15 08 3f 3e 06 90 d7 bd 63 13 28 3e aa 29 d5 3d
       0.18655427 -0.10525517 0.16413645 0.104083374
000240 dc 41 1c be 89 e1 64 bd f7 5b 11 3e f5 70 73 3d
       -0.15259498 -0.05587915 0.14195238 0.059433896
000250 a9 48 d9 bd dd 39 1a be 61 44 24 bd 4a a4 16 bc
       -0.10609562 -0.15061136 -0.040104274 -0.009194443
000260 07 ad 79 3d d3 a0 e0 3d f7 24 ab bd 91 f1 f9 bd
       0.060956027 0.10968175 -0.0835666 -0.12204278
000270 d1 56 d6 3d 06 80 18 3e 4d d9 a8 3c 21 e5 db 3b
       0.10465778 0.14892587 0.02061143 0.006710664
000280 c5 37 e6 3d 9b 3f e6 bc 94 d7 be bd 0a ce 13 be
       0.11241106 -0.028106501 -0.09318462 -0.14434066
000290 a1 3c 30 be b6 a6 0e 3e 04 10 c0 bd 95 cb 87 bd
       -0.17210628 0.13930783 -0.09378055 -0.06630627
0002a0 a4 c1 19 be 25 e5 4e bd b2 e1 5f 3c 78 7d 2b 3e
       -0.15015274 -0.050511498 0.01366465 0.16747081
0002b0 22 fd 20 bb 42 3c de bd 03 b5 0c bd 75 e5 05 be
       -0.0024564941 -0.10851337 -0.034352314 -0.13075812
0002c0 73 31 23 3e 5f 3f ac 3d 80 09 20 3d 35 ca fa 3d
       0.15936832 0.084105246 0.03907156 0.12245599
0002d0 0f 78 32 3d d9 76 28 bd d9 e2 ef bd 79 9d 6e bc
       0.043571528 -0.041128967 -0.1171319 -0.014563912
0002e0 59 d5 6a 3d 5d b9 a1 3d ea da 53 bd 34 c3 1e be
       0.05733237 0.07896683 -0.051722445 -0.15504152
0002f0 93 ed 35 3c 16 32 dd bd 11 7f 9c 3d c5 a1 b4 bd
       0.011104005 -0.10800569 0.076414235 -0.088199176
000300 4e 6a fe bd f6 3e 7e 3d 3e d8 eb bd 70 90 a6 bd
       -0.1242262 0.062071763 -0.11515854 -0.08133018
000310 55 2d c3 3d 3a b5 3a 3e 8f 4e 2f 3e 49 1f b7 3d
       0.09530131 0.18233195 0.17119811 0.08941514
000320 dc cb 9e bc 2e 26 2f be 40 81 20 3d 88 e8 5e 3d
       -0.019384317 -0.17104408 0.039185762 0.054420978
000330 9d 3a e0 3c c9 97 03 3e 84 4e e6 3c ad 21 1d be
       0.027371699 0.1285087 0.028113611 -0.15344878
000340 2f c8 84 bd a2 59 f2 3c 32 87 23 3e 15 a0 ac bd
       -0.064834945 0.029583756 0.15969542 -0.08428971
000350 2b 79 fa 3a 78 37 50 bd 15 15 75 bd b2 14 0d bc
       0.0019109597 -0.05083415 -0.05983456 -0.008610891
000360 e9 fe a0 bd f9 0c 7d 3d b3 6e dc 3d 77 56 67 3d
       -0.0786112 0.06177995 0.10763302 0.056478944
000370 54 05 01 3d 11 0f 0a 3e f8 21 5a bc 43 c7 25 be
       0.031499222 0.1348231 -0.013313763 -0.16189294
000380 f4 67 f9 3d 56 c0 9e 3c c1 c9 c3 bd 21 31 b6 3c
       0.121780306 0.019378822 -0.09559966 0.022240223
000390 4e 22 e0 3a 73 e4 01 be e9 40 19 3d d6 ed 31 b9
       0.0017100067 -0.12684803 0.03741542 -0.00016968636
0003a0 3c 44 a8 3d 2e af 11 be 1f c3 d7 bc 78 dc 15 3e
       0.0821614 -0.14226982 -0.026338158 0.14634883
0003b0 cd b2 63 bd 01 2f 45 3d 8a d0 ba 3d f6 11 52 3d
       -0.05559044 0.04814053 0.09121807 0.05128666
0003c0 fe 90 34 3d 84 fa 08 3e 0e c3 c4 3d 3f 99 03 be
       0.044083588 0.13376814 0.09607516 -0.12851427
0003d0 46 f7 7c 3c 13 2e 72 bc 39 9f 0c be 05 9f 8b bb
       0.015439814 -0.014781493 -0.13732614 -0.0042609
0003e0 f3 fe ad bb fc d5 27 bd d2 bc 68 bc dc 60 db 3d
       -0.0053099333 -0.040975556 -0.0142051745 0.10711834
0003f0 64 21 59 bd e4 cc c6 3d 91 33 f0 bd 1c aa 20 bd
       -0.05301036 0.097070485 -0.117285855 -0.03922473

temporal_encoder.4.bias f4 [32]
000000 40 c2 e4 bd 84 70 bc 3d 8b a4 14 bd e9 9f 61 38
       -0.11169863 0.09201148 -0.036289733 5.379311e-05
000010 42 bc 2e 3e 72 82 22 3e 3e 97 a2 3d de ac 99 bd
       0.17064002 0.15870073 0.079390034 -0.07503675
000020 9a 2a 06 3e b9 7d bd 3d eb e7 e6 bd 23 52 df bd
       0.13102189 0.09252495 -0.112747036 -0.10904338
000030 ee 3e 55 3c db a1 23 be e0 ed e9 bd 2b 5d c6 3d
       0.013015492 -0.15979712 -0.11422324 0.09685739
000040 e8 6b 77 bd 50 a2 27 3e b0 a4 18 be 1b e9 14 3e
       -0.06040564 0.16370511 -0.14906573 0.14542048
000050 d8 9b 3e bd 15 59 38 3e 2f 5a ab 3d e1 f7 66 bd
       -0.046535343 0.18002732 0.083668105 -0.05638874
000060 7a 9b ea bd d1 5f ce bc 4c eb 1d be e3 84 10 3d
       -0.11455436 -0.025192173 -0.1542179 0.03528298
000070 ff 06 24 3e 44 a5 77 bd c7 f6 0d 3e 3b b0 28 be
       0.16018294 -0.060460344 0.1386367 -0.16473477

temporal_encoder.5.weight f4 [32]
000000 e4 b7 79 3f 47 7b 82 3f 93 75 78 3f d7 d8 75 3f
       0.9754622 1.0193871 0.97054404 0.96033996
000010 7f 08 75 3f 4f 24 78 3f 69 0e 75 3f 72 eb 75 3f
       0.9571609 0.969304 0.95725113 0.96062386
000020 6e 7b 71 3f f0 3e 74 3f cc a6 77 3f ba 6e 81 3f
       0.94328964 0.95408535 0.96738887 1.0111916
000030 cd 46 77 3f 37 19 7a 3f cd 14 7a 3f 65 02 76 3f
       0.9659241 0.97694725 0.9768799 0.96097404
000040 fa e8 72 3f 70 2d 78 3f 46 a0 6f 3f 36 40 78 3f
       0.94886744 0.9694433 0.9360393 0.9697298
000050 ae 84 79 3f d4 5e 73 3f 4c cc 73 3f 0c 13 78 3f
       0.9746808 0.9506657 0.9523361 0.96904063
000060 4c 17 77 3f 09 9f 7a 3f d2 20 78 3f be 64 81 3f
       0.96519923 0.9789892 0.9692508 1.0108869
000070 7e 2f 80 3f 39 a2 79 3f 50 ae 7a 3f db 9e 69 3f
       1.0014493 0.9751316 0.9792223 0.9125802

temporal_encoder.5.bias f4 [32]
000000 1c bf 2a bb 80 75 d2 3c 48 22 c6 bc 29 f3 b0 bc
       -0.0026053851 0.025690794 -0.024186268 -0.021600323
000010 77 e8 d2 bc d5 3c cc bb 95 4d b7 bb 72 20 94 bc
       -0.025745614 -0.0062328377 -0.0055939653 -0.018081877
000020 5a 15 10 bd bd 19 32 bd 01 bb cc 3b 3e c0 15 3c
       -0.035176612 -0.043481577 0.0062478785 0.009140072
000030 68 7c 19 bc 62 f5 bc bc c1 48 cc 3b 50 a2 88 bc
       -0.00936804 -0.023066226 0.006234259 -0.01667896
000040 79 ca 15 bd 52 c3 17 bc 25 4d f8 bc 42 7a 65 bc
       -0.036570046 -0.009262877 -0.030310223 -0.014006199
000050 d2 80 65 3a 62 ee 0c bd a2 bf a5 bc 88 77 77 bb
       0.00087548525 -0.034407027 -0.02023298 -0.0037760455
000060 b2 6b 80 bc e8 d4 c1 bb e3 ca 94 3c 22 17 d1 3c
       -0.015676353 -0.005915273 0.01816315 0.025523726
000070 02 96 1c 3d 84 3f 55 3c 1a 5a 01 bc ff fb 51 bd
       0.038228996 0.013015632 -0.007895017 -0.051265713

temporal_encoder.5.running_mean f4 [32]
000000 00 71 c0 be 9a ce be 3e 2e 53 8a bd 2e 4b 7c bd
       -0.37586212 0.37267 -0.067541465 -0.061595134
000010 04 14 37 3e 56 2b 91 bd 69 82 44 3e 5a 9e 11 bd
       0.17878729 -0.07088344 0.19190373 -0.035551406
000020 1b 70 3e be 72 c6 7d 3e 3d a7 c1 3c 1d 7b 76 be
       -0.18597452 0.24782732 0.023639316 -0.24070401
000030 59 0c 87 be ab 36 6c be b0 99 30 3d f8 23 d3 3d
       -0.26376608 -0.23067729 0.043115318 0.10309595
000040 8a 8f 94 3e 64 1e f7 3e 8e 79 a5 be 92 e1 31 3e
       0.29015762 0.48265374 -0.323193 0.17371204
000050 f2 2f 93 bd a0 2a d1 3e 9b 2e 02 3f 64 f4 0e be
       -0.07186879 0.40852833 0.50852364 -0.13960415
000060 40 4a 32 bd a2 88 11 be 90 4a ca be 84 0b 91 3e
       -0.04352784 -0.14212278 -0.39510012 0.28329098
000070 4c 40 65 bc 62 b8 1d bf 06 97 39 3e dd 26 7f be
       -0.01399238 -0.6160947 0.18124017 -0.24917169

temporal_encoder.5.running_var f4 [32]
000000 de b6 61 3e 06 37 f1 3e f6 90 cd 3d 7c a7 02 3f
       0.22042415 0.47112292 0.10037415 0.5103681
000010 de 3a 9b 3d 7f c4 e7 3d 37 14 45 3e ca e7 d9 3d
       0.075795874 0.113167755 0.19245993 0.106399134
000020 b0 8a 18 3e 8b 35 d1 3d d7 0f 83 3e c1 81 2e 3e
       0.14896655 0.10215291 0.25598022 0.17041685
000030 3a 42 05 3f af 60 8e 3e 96 0b 43 3e 8f 7a f3 3e
       0.5205418 0.2780814 0.19047388 0.47554442
000040 a6 03 2f 3e 57 84 88 3e 6c df fb 3d 31 56 47 3e
       0.17091236 0.26663467 0.12298474 0.19466473
000050 1e b1 16 3f 13 a8 1b 3e 4a ea 3e 3e 4a bb b7 3e
       0.5886401 0.15200834 0.18644062 0.35885078
000060 c9 49 14 3f 09 cf 00 3e bc 47 a1 3e e1 1a d1 3d
       0.5792509 0.12578978 0.3150004 0.10210205
000070 d6 9a de 3d b7 22 8a 3e 39 f5 21 3e cb ad e6 3d
       0.10869376 0.2697961 0.15816201 0.11263617

graph_encoder.0.weight f4 [32, 8]
000000 04 3e 8b be ac 36 47 be f3 8c ab 3e fe 31 12 be
       -0.27195752 -0.1945445 0.33505973 -0.14276883
000010 88 4d 1e be 75 81 a5 3e 3b 2b 12 be b1 b3 9a bd
       -0.15459263 0.3232533 -0.14274304 -0.07553805
000020 c8 b6 db 3d d7 f2 bc 3e 16 b2 96 3e a2 ba 3e bc
       0.10728222 0.36904022 0.29432744 -0.011641176
000030 18 19 36 3e 02 23 68 3e 31 cd 64 3d 02 50 86 bd
       0.1778301 0.22669604 0.05585975 -0.06558229
000040 cd 2b 8e be 4c 9a 8e 3e 86 30 ac be 6d 97 cc 3d
       -0.27767792 0.27852094 -0.3363077 0.0998982
000050 fe 3e 5a 3e 4e 24 ad be 0d df 8e be fd 05 84 3e
       0.21313092 -0.3381676 -0.2790455 0.2578582
000060 f0 20 58 be 2f dd 60 bc cf 7d 9a 3d 46 8e 51 3e
       -0.21106315 -0.013724609 0.07543527 0.2046443
000070 19 60 a7 3d b7 c4 ac 3e e1 f9 ba 3d 6f d4 95 be
       0.08172626 0.33743832 0.09129692 -0.29263636
000080 86 4d 28 bd 92 3d b8 3c e9 d5 1f be 7c 8e ab be
       -0.041089557 0.022490297 -0.15608944 -0.33507144
000090 78 85 a3 be 6a 20 a9 be eb 44 94 3d f9 28 5a be
       -0.31937766 -0.33032542 0.072397076 -0.21304692
0000a0 ad 44 9b be 58 de 5d 3d 97 23 40 be dc 22 7e 3e
       -0.30325833 0.05416712 -0.18763576 0.24817985
0000b0 42 c6 88 3e 99 66 10 be 43 71 3b 3e 41 40 b0 bd
       0.2671376 -0.14101638 0.18304925 -0.086060055
0000c0 e3 bc 7a be 61 d8 85 be 03 89 77 3d 39 04 ce 3d
       -0.24486117 -0.26141647 0.0604334 0.10059399
0000d0 3b 63 5d 3d d5 5f aa be 23 36 40 3c f1 9a 90 3e
       0.05404971 -0.3327624 0.011731657 0.2824321
0000e0 f3 f9 5a 3d b1 e3 3b be f7 74 a2 3d 90 df b8 be
       0.053461026 -0.18348576 0.079324655 -0.36108065
0000f0 53 07 8e bc d2 78 0a 3e c1 3b a1 be 33 9a 53 3e
       -0.017337477 0.13522652 -0.314909 0.20664291
000100 d1 c3 00 be 00 d6 81 bc a1 d5 15 3d c1 9a 24 be
       -0.12574698 -0.015849113 0.036580686 -0.16074659
000110 f7 b3 92 be 3c 61 a9 3e d1 4a 1d 3d da 51 94 3e
       -0.28652927 0.33081996 0.03840143 0.28968698
000120 a0 a2 ce 3d 7c 9b 43 3e 45 c2 3d be 25 74 4f bc
       0.10089612 0.19102281 -0.18531139 -0.012661968
000130 bc 43 54 be e5 8c 05 be 96 44 7c be 70 9c 4e 3e
       -0.20728964 -0.13042028 -0.24635538 0.20176864
000140 a9 43 a0 3e 5f 2d 96 3d 4d b6 05 bc 23 f4 d6 bc
       0.3130162 0.073328726 -0.00816114 -0.02623946
000150 6f 5f 4c bd 6b 52 af be 4f cb 88 3e 5f b1 16 be
       -0.0498957 -0.34242567 0.26717612 -0.14716099
000160 48 91 61 be b6 03 84 3e 9f ba 7f 3d fc eb 8b bd
       -0.22028077 0.2578408 0.062433835 -0.0683212
000170 e0 bb 83 be 5c b7 5b 3e 16 0f 73 be d9 fe 07 bc
       -0.25729275 0.21456665 -0.23736224 -0.0083005065
000180 2b 41 56 3d ff 03 19 3d c9 b3 9f be c4 ac 9e be
       0.052308243 0.037357327 -0.31191853 -0.30991185
000190 54 9b 14 3e fe d4 b1 bd c5 b0 58 be d9 0b 9e bc
       0.14512378 -0.08683203 -0.21161182 -0.019292759
0001a0 53 22 1f bd 45 fb c8 3d a9 0f 8f be 62 a3 f1 bd
       -0.038851094 0.09813551 -0.27941635 -0.11798741
0001b0 b7 88 94 3d da c6 de bd 23 8a 43 3e 63 e4 b7 be
       0.07252639 -0.10877772 0.19095664 -0.35916433
0001c0 21 77 06 be 2e 8f 68 3e de e6 ca 3d 27 96 a0 3e
       -0.13131382 0.22710869 0.09907316 0.31364557
0001d0 1c 58 6b 3e 54 06 8a be 59 0b 89 be ed 32 71 be
       0.2298283 -0.26957953 -0.2676647 -0.23554583
0001e0 77 2b 54 be 19 cf 10 be b3 b0 17 bd 27 b4 e4 bd
       -0.20719706 -0.14141501 -0.037033748 -0.11167174
0001f0 e4 d8 63 be c1 4e 82 3e a0 c3 85 be a2 93 5b 3e
       -0.22250706 0.2545071 -0.26125813 0.21443036
000200 d9 8c 43 be f8 81 9a 3e d3 d9 a6 3e 36 93 82 be
       -0.19096698 0.30177283 0.32588062 -0.25502938
000210 32 a1 0e be 5a 31 bd bd e4 85 62 be 47 ca 98 bd
       -0.13928679 -0.09237929 -0.22121388 -0.07460456
000220 bc b6 50 3e 75 d6 6c 3e ab 5e b3 3e 7a 92 38 be
       0.20382208 0.23128684 0.35033163 -0.18024626
000230 fd fb 41 3e 8d ca da 3c 48 0e d9 bd d7 c2 34 be
       0.18943782 0.026707912 -0.10598427 -0.1765245
000240 f6 e5 90 3d e4 26 2e 3e fa 1d 85 be 24 de 8d 3e
       0.070751116 0.17007023 -0.25999433 0.27708542
000250 09 51 2a bd f2 c4 8d be 51 0c 1d 3e 35 34 9c 3e
       -0.041581187 -0.2768932 0.1533673 0.3050858
000260 a1 07 b8 be 65 75 f5 3d 9f f9 99 3e ed 36 9b 3e
       -0.3594332 0.11985282 0.30073258 0.30315343
000270 15 24 9b 3e d3 6f db 3d 7a a5 6f be 91 77 bd 3d
       0.30300966 0.10714688 -0.23402968 0.09251321
000280 84 4a 6e 3e ca a0 a4 be 1a bc 8e 3d ae 94 b7 3e
       0.23270613 -0.32153922 0.06969471 0.3585562
000290 14 f1 94 be e6 96 1f 3e 52 50 b9 3d 47 25 5b be
       -0.29090178 0.15584907 0.09048523 -0.21400939
0002a0 c9 1c 95 be f9 50 0b be 8e 0f 1d bc 8b 3c 51 be
       -0.29123524 -0.13605107 -0.009586228 -0.20433252
0002b0 a0 98 2a bd 92 f3 a9 3d 4f 66 06 bc 67 20 5f 3e
       -0.04164946 0.082984105 -0.008203103 0.21789704
0002c0 6a a1 af 3d 11 e4 ea 3d df 63 8a be 70 4a 07 3e
       0.08575709 0.114692815 -0.2702932 0.1321199
0002d0 bd fb b1 3e e5 09 c9 bc 30 51 9f be 4e 14 01 be
       0.34762374 -0.02454085 -0.3111663 -0.12605402
0002e0 d3 2a b2 3e ae 49 3b be 87 11 61 3e 72 e1 98 be
       0.34798297 -0.18289825 0.21979342 -0.298595
0002f0 17 d2 8d be b5 4a 60 be 9f 08 d0 3d 9d 3d dc bd
       -0.27699348 -0.21903498 0.10157894 -0.10753939
000300 8a c6 0b be 09 c6 73 3e a8 e8 9a be 34 8c 86 be
       -0.13649955 0.23806013 -0.30255628 -0.26278841
000310 8a 34 5e be 9a d6 48 bc 8f 85 b2 3d 9d 6e 0f bd
       -0.2169973 -0.012258196 0.087168805 -0.0350176
000320 c3 ad 84 be f6 ea 86 be 64 e5 81 3e 0b bd 7b be
       -0.2591382 -0.26351136 0.25370324 -0.24583833
000330 0b e8 4c be c5 24 bb 3d 65 79 54 bd de 33 e7 bd
       -0.20010392 0.091378726 -0.051873583 -0.1128919
000340 49 3b 95 3e 8b 49 37 be 9d 3c a8 be 2f dd 31 3e
       0.29146793 -0.17899148 -0.32858744 0.17369531
000350 79 8f 8d 3e 34 bf 5e be 43 80 5a 3d 97 ca 7c 3d
       0.27648523 -0.21752626 0.053344976 0.061716642
000360 0d 6c 3a 3e d1 0b 89 bd 67 0e 1a bd 7d 4d bb be
       0.1820528 -0.06691707 -0.03761139 -0.36582556
000370 85 a8 97 3e 57 e1 be 3d ba df f4 bc 7b 98 18 be
       0.29620758 0.09320324 -0.029891837 -0.14901917
000380 0b fd 52 bd 58 75 a1 be b6 f6 8a bc 0d 2c 6f be
       -0.05151085 -0.3153484 -0.016963344 -0.23356648
000390 9e a6 71 be d6 ff 33 be 3b 06 72 bd 75 9b 95 bd
       -0.23598716 -0.17578062 -0.059087973 -0.07305042
0003a0 11 60 27 3d 86 10 43 be 72 fe 2c be 82 5e c4 38
       0.0408631 -0.19049272 -0.16893938 9.363612e-05
0003b0 ac 98 2a be 19 50 61 bd 84 76 51 3d c3 2b b9 be
       -0.16659802 -0.055008028 0.051138416 -0.361662
0003c0 0c 6e b1 be 54 e6 b9 bc 4d a7 a2 3e 51 9a 75 3d
       -0.34654272 -0.022692837 0.31768265 0.05996162
0003d0 9f 1b 49 3d a2 22 b2 3d f4 8a 44 3e 93 6b c1 bd
       0.049098607 0.08698012 0.19193631 -0.09444346
0003e0 96 ea 3c 3e af dd 67 be 30 1f 59 be c1 11 35 be
       0.18448862 -0.2264316 -0.21203303 -0.17682554
0003f0 e8 8c 0b 3e 85 6e af 3e 10 f5 67 bd e4 06 1e 3e
       0.1362797 0.34264007 -0.056630194 0.15432316

graph_encoder.0.bias f4 [32]
000000 b2 80 78 bd 01 27 a4 be 54 b0 91 bd f3 68 ad 3d
       -0.06066961 -0.32061008 -0.0711371 0.08467283
000010 ec fa 49 be 33 ca 8f 3e 98 38 8d be ec 3d c8 bc
       -0.19724625 0.28083953 -0.2758224 -0.02444359
000020 50 ef 1e be 87 49 59 3e a1 6b 7c 3e 44 dd 98 3e
       -0.15520978 0.21219455 0.24650432 0.29856312
000030 b7 46 e6 bd a7 e1 94 3d 3e a9 b1 be f6 46 5c 3e
       -0.112439565 0.07269602 -0.34699434 0.21511444
000040 72 16 5d 3e 24 9f 9c 3d 50 af bc bc 2d 6e 23 bd
       0.21590593 0.07647541 -0.023032814 -0.039899994
000050 b3 5e a0 3e f0 4d 12 3e 31 c8 a3 3e 8b a1 79 be
       0.3132225 0.14287543 0.3198867 -0.2437803
000060 aa 1c 4f be 1b fb 6a 3d 48 2a fe 3d b2 b9 a1 be
       -0.20225778 0.05736838 0.12410408 -0.31586987
000070 e4 53 57 be 0d 86 07 3d f2 d5 b2 be 54 37 fc bd
       -0.21028095 0.033086825 -0.34928852 -0.123152405

graph_encoder.1.weight f4 [32]
000000 25 cf 6d 3f 39 72 85 3f fd c9 80 3f b1 f4 7f 3f
       0.928942 1.0425483 1.0061642 0.99982744
000010 42 ea 81 3f f9 27 7e 3f 6f 89 7c 3f e3 49 77 3f
       1.0149615 0.99279743 0.9864721 0.9659712
000020 84 b2 7a 3f ce 91 79 3f d2 8c 77 3f d4 db 7d 3f
       0.97928643 0.97488105 0.9669925 0.99163556
000030 a4 c6 7f 3f aa f5 7f 3f 7a 7c 7d 3f 77 fb 76 3f
       0.99912477 0.9998423 0.9901806 0.96477455
000040 45 77 81 3f 92 0a 71 3f ab 11 84 3f 0f c4 80 3f
       1.0114523 0.94156754 1.0317892 1.0059832
000050 fd 05 75 3f f1 2c 7a 3f fc 09 80 3f 88 af 7f 3f
       0.9571226 0.97724825 1.0003047 0.99877214
000060 c5 ff 83 3f d0 24 84 3f 79 f7 7a 3f 47 35 82 3f
       1.031243 1.0323734 0.98033863 1.0172509
000070 b0 01 7c 3f 4f b0 80 3f 7e 7b 7a 3f 67 4d 7a 3f
       0.98440075 1.0053805 0.97844684 0.97774357

graph_encoder.1.bias f4 [32]
000000 2f 2f 5d bd 0f 88 4a 3d 66 cc fa 3a 3f 1d c6 bb
       -0.054000076 0.04944616 0.0019134402 -0.006045967
000010 a5 dc 7e ba d4 9d 25 3c f3 96 aa 3a 9e 04 2f bd
       -0.00097222097 0.01010843 0.0013014957 -0.042729013
000020 5f 70 21 bc 70 36 58 b9 a5 5e c4 bb ec 1a a2 3c
       -0.0098534515 -0.00020619645 -0.005992728 0.019788228
000030 42 bf 7e 3b 23 5b eb 3c 0b 90 d0 bb 6e b5 4a bc
       0.0038871323 0.02872998 -0.0063648275 -0.012372358
000040 35 e6 59 3d f1 c1 4f bd d2 64 03 3d ac 80 c1 3c
       0.05319806 -0.050722066 0.03207857 0.023620926
000050 fd 30 0e bd 8e d8 bb bb a4 c9 6d 3c ac 34 c4 3c
       -0.034714688 -0.0057326024 0.014513407 0.023950897
000060 58 98 68 3d 05 0a 93 3d 6f d7 80 bb 9d 54 db 3c
       0.05678591 0.071796454 -0.0039319317 0.026773745
000070 55 33 d7 bc 6c 7e fe 3c 05 ce a9 bc 86 83 8a bc
       -0.026269594 0.031066142 -0.02072812 -0.016908418

graph_encoder.1.running_mean f4 [32]
000000 62 d8 c5 43 07 fd 7a 45 0c 6c c6 c5 07 23 a0 45
       395.6905 4015.8142 -6349.506 5124.3784
000010 49 ca d8 c5 f1 20 13 45 4e e2 dd c4 ea 32 5f c5
       -6937.2856 2354.0588 -1775.072 -3571.1821
000020 5a be ab 45 ab 37 a0 c5 61 d9 b0 c4 80 51 07 c5
       5495.794 -5126.9585 -1414.7931 -2165.0938
000030 bf ec af c5 e8 e3 79 c4 2a 03 ef c5 01 9e 22 c4
       -5629.5933 -999.56104 -7648.3955 -650.4688
000040 2d 6c d6 c5 4f 9b 2c c5 c7 4f ec 44 71 83 8f 43
       -6861.522 -2761.7068 1890.493 287.0269
000050 19 09 2b 45 cc 15 ba 44 09 de 93 c5 06 e5 78 c5
       2736.5686 1488.6812 -4731.7544 -3982.314
000060 11 03 12 c4 9c 66 f6 c4 f6 aa a5 c2 e4 51 5b c4
       -584.0479 -1971.2065 -82.83391 -877.27954
000070 97 93 aa c5 0d 48 30 c5 81 3e 80 45 25 6f 88 45
       -5458.4487 -2820.5032 4103.813 4365.893

graph_encoder.1.running_var f4 [32]
000000 24 bf ad 48 19 56 d4 49 3b 6e aa 4a ad cb 40 4a
       355833.12 1.7394591e+06 5.5846695e+06 3.1587632e+06
000010 46 80 81 4a 87 ec 30 49 a2 9b 4c 49 a5 bc ec 49
       4.243491e+06 724680.44 838074.1 1.9393486e+06
000020 b4 57 40 4a 46 a5 45 4a 94 e1 27 49 2a df 36 49
       3.151341e+06 3.2382255e+06 687641.25 749042.6
000030 cc fa 49 4a 8d c9 c9 48 e1 70 c6 4a 81 4d 06 49
       3.309235e+06 413260.4 6.5025125e+06 550104.06
000040 e0 b4 8b 4a 48 3e 39 49 cf cc 1e 49 3f e3 bd 48
       4.577904e+06 758756.5 650444.94 388889.97
000050 e8 db 76 49 dd 78 68 48 99 4e 2f 4a 4e d2 ac 49
       1.0111345e+06 238051.45 2.8722302e+06 1.4157538e+06
000060 9a a0 ce 47 e9 76 b0 48 a5 4e 22 48 85 97 65 48
       105793.2 361399.28 166202.58 235102.08
000070 c0 b9 24 4a bd 48 22 49 2f 41 f0 49 e6 34 f8 49
       2.698864e+06 664715.8 1.9681659e+06 2.0333088e+06

graph_encoder.4.weight f4 [32, 32]
000000 64 58 ad 3c 1c fe 07 be 8c 06 0f be af f0 4d 3d
       0.021160312 -0.13280529 -0.13967341 0.050278362
000010 f7 33 83 bd 60 88 eb bd 7d 4b 5b 3e cc 12 22 be
       -0.06406396 -0.11500621 0.21415515 -0.15827483
000020 e7 80 e7 3d 6b af f5 3d 81 f5 1f be d3 8a 0d be
       0.11303883 0.11996349 -0.15620996 -0.13822488
000030 c4 7e 1e bd 15 07 43 3b 15 df f0 bd 51 d7 98 3c
       -0.038695112 0.002975886 -0.117612995 0.018657358
000040 21 5a a8 ba f4 9c b3 3c 77 de 18 3e 58 88 f8 bd
       -0.0012844243 0.021925427 0.14928614 -0.121353805
000050 8f f8 06 3e 51 18 3f 3e 41 bd 52 bd 0d be d5 bc
       0.13180755 0.1866162 -0.051450018 -0.0260916
000060 68 a1 b1 bd 31 91 8d bd 15 32 00 3e fa 23 14 3e
       -0.08673364 -0.06912459 0.12519105 0.14466849
000070 25 3e 9e 3c 9b 94 cb bc 06 fc 23 bd 6f 47 0b 3e
       0.019316742 -0.024851134 -0.04003527 0.13601469
000080 5b 0f 04 3e 38 6f 6b bc 3b b3 92 bc 44 3c db bd
       0.12896483 -0.014369778 -0.01790773 -0.10704854
000090 de 7a ae bc 45 92 08 be c6 ae 3a be ae 98 1f be
       -0.021298822 -0.13337047 -0.18230733 -0.15585586
0000a0 44 d1 08 3e 10 82 5e 3d 72 a0 e3 bb 1c a1 44 3e
       0.13361079 0.054323256 -0.006946617 0.19202083
0000b0 be 0a 48 3d c8 78 17 3d 8e fa 04 3c 70 27 0d 3e
       0.04883837 0.03698042 0.0081163775 0.13784575
0000c0 a2 c8 f8 3b 37 46 a6 3d d7 63 b6 bd 6b 5d 5d 3d
       0.0075922767 0.08118861 -0.08905762 0.05404417
0000d0 e4 26 0e be d6 ac 5d 3e 60 48 2c 3d 62 1b 8b 3d
       -0.13882023 0.21647963 0.04206121 0.06792332
0000e0 8e 48 bc bc 1b fe 0b 3e 6a c0 2c be 6a f7 b7 bd
       -0.022983816 0.13671152 -0.16870275 -0.08982737
0000f0 6b 39 41 be df 1e e7 bd a5 e3 d6 bd 3d 37 36 3d
       -0.1886956 -0.11285185 -0.104926385 0.044486273
000100 e2 e0 bc bd 63 a3 23 3d 02 d4 34 3e ed 9f 8a bd
       -0.092225805 0.03995074 0.17659 -0.06768785
000110 86 0d c2 bd bc ff d6 bc 85 75 24 3e 12 cd 83 bd
       -0.09475236 -0.02624499 0.16060455 -0.064355984
000120 8e d7 ed bc 77 f6 da bd c5 30 40 bd 66 6d 31 3e
       -0.029033449 -0.10691541 -0.04692151 0.17326888
000130 01 5a 1f bd 97 88 70 3c 35 38 61 bd 5b bd b1 3d
       -0.038904194 0.014681003 -0.054985244 0.08678695
000140 ab 3a df 3d 97 0a 88 bd 45 45 41 bd 06 c2 8e bc
       0.10899862 -0.06642645 -0.0471852 -0.017426502
000150 ca a5 f7 3d 7b 12 b8 3d c3 f2 04 be 44 e7 19 bc
       0.12092169 0.089879 -0.12983231 -0.009393517
000160 ed 61 f0 3d 04 03 2c 3e fc 5b 90 bd b0 d4 cd bd
       0.11737428 0.16798025 -0.070487946 -0.100503325
000170 93 e2 86 bc 43 86 d1 3d c6 fa 75 bd 0b 4a 87 bd
       -0.01646546 0.102306865 -0.06005361 -0.066059195
000180 ba 3d 4b bd 06 c3 cb bd 33 fc 2e be fc 02 13 bd
       -0.049619414 -0.09949307 -0.17088394 -0.035891518
000190 0e 96 f6 3d 59 f3 a4 3c a0 9d 29 be e0 0a 94 3c
       0.120403394 0.020135568 -0.16564035 0.018071592
0001a0 7e d9 02 3e 32 91 1a 3e 09 28 3b 3e 13 24 05 be
       0.12778279 0.1509445 0.18276991 -0.13002042
0001b0 a4 c7 14 be 57 af d6 3d ed 26 4e bc 22 f9 2e 3d
       -0.14529282 0.10482662 -0.012582523 0.04271806
0001c0 93 c9 b6 bd 2f 76 be 3d bd 53 be bd 71 dd 38 3c
       -0.08925166 0.092998855 -0.092933156 0.0112832645
0001d0 5e 52 bb 3d 1d 01 d9 bc 79 5d 9d 3d 81 3e 61 3d
       0.0914657 -0.026489789 0.07683844 0.05499125
0001e0 49 83 d6 3d 4d 34 f6 3d bf b7 f9 3c 04 94 52 3d
       0.104742594 0.12021694 0.030483125 0.05141069
0001f0 4f fd b8 3d 57 bf 62 3d 5c 0a f7 bd 3f 0c fa 3d
       0.0903269 0.055358257 -0.12062523 0.12209367
000200 f0 01 c5 3d ed 90 22 3d b8 df 3b 3d eb ee cd bc
       0.0961951 0.039688993 0.04586765 -0.025138339
000210 c9 c6 3f be cf e4 29 3d eb 47 05 be 67 1c 04 be
       -0.18728174 0.041477975 -0.13015716 -0.1290146
000220 14 9a 38 3e 2a 8c c7 bd 3c f6 ba 3d 12 57 50 bd
       0.18027526 -0.09743531 0.09128997 -0.050864287
000230 69 4d 88 bc a4 f8 18 be e2 2e eb bd 41 92 c7 bd
       -0.016638475 -0.14938599 -0.114835516 -0.097446926
000240 f5 b7 62 be 59 2b 08 be 2e 4e 12 3e c6 a5 44 bd
       -0.22140487 -0.13297786 0.14287636 -0.048009656
000250 84 7b 3a bd 08 51 90 bd 1d 60 4f bd 07 86 3e 3c
       -0.04552795 -0.070467055 -0.05062877 0.011628634
000260 15 ea 36 bd 10 79 58 be 65 7a b5 bd ae 7e 89 bd
       -0.04465683 -0.21139932 -0.088612355 -0.06713615
000270 3a aa d0 bd 14 5b d4 bd 02 8a 8f bd 24 f7 2f 3e
       -0.10188718 -0.10368934 -0.07008745 0.1718412
000280 e7 14 94 bd f9 2e 43 be 78 cb 57 3e fa b4 b1 bd
       -0.07230549 -0.19060887 0.21073711 -0.08677097
000290 49 73 20 3e 52 e0 e8 3d 11 55 9c 3d cf 57 71 bd
       0.15668978 0.11370911 0.07633413 -0.05892163
0002a0 4c 95 85 3b d3 e7 62 3e 9b 58 ba bd 12 3c 2c 3d
       0.0040766355 0.22158746 -0.090989314 0.042049475
0002b0 b9 43 50 3d b2 97 32 bc 15 c2 23 3e d9 8d e0 bd
       0.050845835 -0.010900425 0.15992005 -0.10964555
0002c0 90 1a 7a 3d 84 e0 0e 3e 6c 37 3f 3d a3 f9 39 3d
       0.06106049 0.13952833 0.046683714 0.045404088
0002d0 7b bf f3 bc 64 cc e7 3d 9c e8 f5 3d e4 d2 c9 bd
       -0.029754391 0.11318281 0.12007257 -0.09854677
0002e0 79 22 df 3c 2c 7a ad 3d db 69 21 3e f7 a9 5e bc
       0.027238118 0.08470568 0.15763037 -0.013590327
0002f0 39 65 f1 bb 22 5f 04 3d 04 2b f3 3b 4e 29 dd 3c
       -0.007366803 0.03231729 0.0074208993 0.026997235
000300 f5 9b cd 3d b5 46 45 3b b1 5b 6d 3d 46 44 78 3d
       0.10039512 0.003010196 0.057948772 0.060611986
000310 27 29 34 be c6 6e 5b 3d 96 2a 45 be f9 62 58 3d
       -0.17593823 0.05357244 -0.19254526 0.052828763
000320 c7 85 f7 3d d8 23 03 be e6 5b 50 3d d0 87 f3 3c
       0.12086063 -0.12806642 0.05086889 0.029727846
000330 94 aa bd bd f4 e1 11 3e fb 0f 57 be 69 76 47 3d
       -0.09261051 0.1424635 -0.2100219 0.04869691
000340 ab 03 0c 3d 62 ed 8e bd 4f 67 0a bd 9b 99 09 be
       0.034183186 -0.06978871 -0.03378993 -0.13437502
000350 7a 64 8c bd 06 30 25 3c db c5 54 bd d3 a5 50 3c
       -0.06855102 0.01008225 -0.051946502 0.012734848
000360 a3 fc 04 3e ed 98 61 3c 9c 03 89 bd 85 73 ce bd
       0.12986998 0.0137693705 -0.066901416 -0.10080627
000370 41 38 f0 3c 43 34 8b 3d 0a fc 18 3e 46 c0 cd 3d
       0.029323699 0.067970775 0.14939895 0.10046439
000380 93 57 48 3d 06 4e 29 3e 18 cd ab bb df 54 8e bc
       0.048911642 0.1653367 -0.005242955 -0.017374454
000390 84 00 30 be 95 c4 04 bc f2 84 13 3b 3d 8a c5 3d
       -0.17187697 -0.008103509 0.0022509662 0.096455075
0003a0 61 00 12 be ec 78 ef 3c c5 aa a2 3d c9 2f 94 bd
       -0.14257957 0.029232465 0.07942728 -0.07235677
0003b0 09 4c 1c be 49 d8 90 bc a6 44 a5 3d 24 82 a1 bd
       -0.1526338 -0.017681258 0.08069734 -0.078861505
0003c0 e4 c3 ee bd fc d5 f7 bc 39 50 47 be 89 82 34 bd
       -0.11658457 -0.030253403 -0.19464196 -0.0440698
0003d0 d5 df 8d bd c4 d9 60 3c 8b da a6 3d 39 b0 b1 bd
       -0.06927458 0.013723794 0.081471525 -0.0867619
0003e0 cd ce da bd 2d 4b 3b bc 1e 0c 45 be ae 59 e1 3d
       -0.10683975 -0.0114314975 -0.19242904 0.11003433
0003f0 cf 61 18 be 5f 9f bd bd bd 01 dd 3c 90 30 8d 3d
       -0.14881061 -0.09258913 0.026978368 0.06894028

graph_encoder.4.bias f4 [32]
000000 dd e2 6a bd 70 91 51 3d a0 ee 17 bd d7 54 1a 3d
       -0.05734526 0.05116409 -0.037092805 0.037678566
000010 04 11 36 bd 37 b6 2c 3e 44 c0 e8 3d a3 d4 b9 bd
       -0.04444982 0.16866384 0.11364797 -0.0907376
000020 5d 3d 94 3d d2 dd 07 3e 5e d9 6c 3d 53 bf 1d 3e
       0.072382666 0.13268211 0.057824485 0.15405016
000030 81 00 e6 3d 76 b2 16 be 83 71 1c 3a f0 99 13 3e
       0.11230565 -0.14716515 0.00059678423 0.14414191
000040 35 d5 13 3c 79 53 87 bc 53 e6 02 be 7f d1 11 3e
       0.0090230005 -0.016519295 -0.12783174 0.14240073
000050 da f9 25 bd 9d 9c 3e bb e0 2b 23 be 8e da c5 3d
       -0.04052148 -0.0029085048 -0.15934706 0.096608266
000060 81 dd 03 3d cc 14 e5 ba b6 a2 04 3e 04 10 b5 bd
       0.032193664 -0.0017477511 0.12952694 -0.08840945
000070 92 f1 4d ba f2 c8 36 bc 89 b4 94 bd 3c 13 97 bd
       -0.0007856126 -0.0111563075 -0.07260997 -0.073767155

graph_encoder.5.weight f4 [32]
000000 e3 4b 80 3f 84 16 7c 3f 7f 0e 76 3f e9 ba 81 3f
       1.0023159 0.98471856 0.9611587 1.0135165
000010 b1 30 85 3f 0b 81 87 3f fe 75 7e 3f 78 00 84 3f
       1.0405484 1.0586256 0.9939879 1.0312643
000020 0d a3 7f 3f d1 2e 82 3f c1 2f 7b 3f 42 35 7a 3f
       0.9985817 1.0170537 0.9811974 0.97737515
000030 35 22 7b 3f 72 e7 86 3f af d3 82 3f 06 e1 6f 3f
       0.9809907 1.0539382 1.0220851 0.93702734
000040 7c ab 7f 3f a2 2d 80 3f 97 f0 81 3f 2b c4 7a 3f
       0.9987104 1.0013926 1.0151547 0.9795558
000050 e2 37 82 3f 9a 7a 86 3f 1c c3 86 3f 7e 46 80 3f
       1.0173304 1.0506165 1.0528293 1.0021513
000060 68 41 84 3f 48 fb 83 3f b3 24 80 3f c0 77 80 3f
       1.033246 1.031106 1.00112 1.0036545
000070 49 82 81 3f a0 50 8a 3f 9b d9 7b 3f 86 f4 82 3f
       1.0117885 1.0805855 0.98378915 1.0230873

graph_encoder.5.bias f4 [32]
000000 3b 87 ab 3c 90 ea b8 3b 78 87 cb bc 19 97 1d 3d
       0.020938506 0.0056431964 -0.02484487 0.038474176
000010 88 e0 8e 3d 79 19 97 3d aa 9a e0 3c 9e 02 46 3d
       0.0697642 0.073779054 0.0274175 0.04834234
000020 e1 43 e4 3b d7 ea 39 3d c2 32 98 3c 30 fd 70 bb
       0.0069660996 0.045389976 0.01857889 -0.0036772005
000030 0c c5 be 3b d3 0f ba 3d 7c 79 a5 3d 41 51 68 bd
       0.0058218297 0.090850495 0.08079812 -0.056718115
000040 c7 1b 3b 3b 69 3c bc 3c b9 b8 0b 3d a8 dc 2e 3c
       0.0028550492 0.022978025 0.034111712 0.010672726
000050 20 80 2c 3d 74 4e 96 3d ad f8 c8 3d 42 93 bb 3c
       0.042114377 0.073391825 0.09813056 0.022897366
000060 38 b0 8d 3d e0 9c 93 3c c9 bb 78 3c 24 b6 dd 3c
       0.06918377 0.01801914 0.01518149 0.02706439
000070 34 71 e7 3c ff 6b 9f 3d 46 89 8f 3c 2d 8b 39 3d
       0.028252222 0.077842705 0.017521512 0.045298744

graph_encoder.5.running_mean f4 [32]
000000 71 68 eb bc 15 5a f1 bc 96 b9 87 3d 65 52 93 3e
       -0.028736325 -0.0294619 0.066271946 0.287738
000010 fc de 1c bf b3 42 23 3f 5e cb cf 3d ff e3 0a bf
       -0.6127775 0.6377365 0.10146211 -0.54254144
000020 4b 83 b1 be 8f 5e 72 3e 3b 76 28 be 32 b6 16 3f
       -0.3467048 0.23668884 -0.16451351 0.5887176
000030 4a 2f 5b 3e 91 14 0b bf aa 1f b0 3e 16 a1 3a 3e
       0.21404758 -0.54328257 0.34399158 0.18225512
000040 92 be 88 3d ad 11 31 bc 2a ca c6 3c ab 96 7e 3e
       0.066769734 -0.010807437 0.024266321 0.24862163
000050 20 92 8f 3e 61 6c 3f 3d 07 b8 17 bf 8f be b7 bd
       0.28041172 0.046734218 -0.5926518 -0.08971893
000060 e6 07 ab be 1c d1 53 3e 2d cb 9e be 2a a7 d4 bc
       -0.33404464 0.20685238 -0.31014386 -0.025958616
000070 09 13 aa 3e dd 67 6d be 86 44 a9 be 98 33 ea 3d
       0.33217648 -0.23184152 -0.33060092 0.11435622

graph_encoder.5.running_var f4 [32]
000000 30 52 b6 3e d0 f6 86 3e 23 52 fa 3d 73 20 3a 3e
       0.3560958 0.26360178 0.122226976 0.18176441
000010 db b4 70 3f c7 3b 22 3f 92 82 03 3f 4d 70 83 3e
       0.94025964 0.63372463 0.5137111 0.25671616
000020 a1 a1 5c 3e 2a b2 8b 3e bd fc d6 3d b3 c2 58 3e
       0.21546032 0.27284366 0.10497425 0.21168022
000030 f3 95 81 3e 04 c1 51 3f 9d fc 43 3e f7 a4 c5 3d
       0.25309715 0.81935143 0.19139333 0.09650605
000040 22 fc 86 3e d9 f9 89 3e 95 f9 6e 3e af a8 4c 3e
       0.26364237 0.2694843 0.23337395 0.19986223
000050 af 26 69 3e f1 d2 e9 3e 77 d3 26 3f 34 a9 23 3e
       0.22768663 0.45668748 0.6516642 0.15982515
000060 35 86 eb 3e 03 e3 85 3e dc 94 c4 3e 78 33 6c 3e
       0.4600083 0.2614976 0.3839482 0.23066509
000070 64 60 8c 3e fb 83 a7 3e 2f 41 40 3e 63 70 48 3e
       0.2741729 0.3271788 0.18774866 0.19574122
