models/lstm_gru_hybrid_best.pth (torch, 95674 bytes, 76 tensors)

temporal_encoder.0.weight f4 [32, 7]
0	0xbebd54cf	-0.36978766
1	0x3e1bffb0	0.15234256
2	0xbebfa6df	-0.37432
3	0xbe26c8f5	-0.16287597
4	0xbeb829f8	-0.3596952
5	0x3e785e96	0.24254832
6	0xbea512ed	-0.32241002
7	0x3ee3ae09	0.44468716
8	0xbd15eacf	-0.036600884
9	0x3d2afda3	0.041745793
10	0xbe9274de	-0.28604788
11	0x3e7af99f	0.24509285
12	0xbc52d0db	-0.012867178
13	0x3d650c63	0.055920016
14	0x3db5192f	0.08842694
15	0xbe8e4f39	-0.27794817
16	0x3e933863	0.28753957
17	0x3e01bc1b	0.12669413
18	0xbeeeffcb	-0.4667953
19	0xbb4c39ed	-0.0031162456
20	0x3c97e6a9	0.018542605
21	0x3be5e7e4	0.007016169
22	0xbdf77c53	-0.1208426
23	0x3ed0adc3	0.4075757
24	0x3c9b09dd	0.018925602
25	0x3ed0598b	0.40693316
26	0xbde58d97	-0.11208647
27	0x3af3b7a2	0.0018594156
28	0xbecb2d70	-0.39683104
29	0xbebd8bc0	-0.37020683
30	0x3e5134fe	0.20430371
31	0x3e5187bb	0.20461933
32	0xbe8b8638	-0.27250838
33	0xbc1044c2	-0.008805456
34	0x3ccb4cb3	0.024816846
35	0x3c19eca1	0.009394796
36	0xbe654563	-0.2238975
37	0xbe33c98c	-0.17557353
38	0xbee434d3	-0.44571552
39	0x3e174d72	0.14775637
40	0xbcd1602b	-0.025558552
41	0xbd1a46fb	-0.03766535
42	0x3ebae036	0.36499184
43	0xbe3f6bf3	-0.18693523
44	0xbe5108da	-0.20413533
45	0x3e127476	0.14302239
46	0xbe2d6048	-0.1693126
47	0x39c4a30b	0.0003750551
48	0x3b2e175a	0.0026564212
49	0xbe8edf82	-0.27904898
50	0xbe8faa7a	-0.2805975
51	0xbea92733	-0.3303772
52	0xbe660c12	-0.22465542
53	0xbeca5613	-0.39518794
54	0x3e80e6d5	0.2517611
55	0x3e9f6ac1	0.31136134
56	0x3eebdd4e	0.4606728
57	0xbcf20441	-0.029543044
58	0xbe7bdd9d	-0.24596258
59	0xbe546a63	-0.20743708
60	0x3eb46b3b	0.3523806
61	0x3ade0ea8	0.0016941624
62	0xbcbd6022	-0.023117129
63	0xbea05905	-0.31317917
64	0x3e3a18e7	0.18173562
65	0xbecb1726	-0.39666098
66	0xbd8eed2a	-0.06978829
67	0xbde643f7	-0.11243432
68	0xbd9fb54d	-0.07798252
69	0x3e76706f	0.24066328
70	0x3e81bb65	0.25338283
71	0x3ed63704	0.4183885
72	0x3e8d6d47	0.27622434
73	0x3eaaf76d	0.33391896
74	0x3f0d543e	0.5520667
75	0x3de7d002	0.11318971
76	0x3e29cce8	0.16582072
77	0xbea6ad9c	-0.32554328
78	0x3ea7d355	0.3277842
79	0x3e8d6761	0.27617934
80	0xbd9641c0	-0.073367596
81	0xbc8ab38b	-0.016931316
82	0x3e161e95	0.14660104
83	0x3e0ef6d6	0.13961348
84	0x3e7df52f	0.24800561
85	0x3edaa796	0.42705983
86	0x3ee90ad3	0.4551607
87	0x3e2e417e	0.17017171
88	0xbe87b51e	-0.2650537
89	0xbd2dbcd3	-0.042416405
90	0xbe75ccf1	-0.2400396
91	0xbec23676	-0.37932175
92	0xbd4de5ce	-0.050267987
93	0xbe20fbbd	-0.1572103
94	0xbdb54d4c	-0.08852634
95	0xbee782b5	-0.4521691
96	0xbd0cb622	-0.034353383
97	0xbd1691b0	-0.036760032
98	0xbeac351a	-0.33634263
99	0x3e50ab1d	0.20377775
100	0x3e831eb4	0.25609362
101	0xbe5a91f9	-0.21344747
102	0x3ed6895a	0.41901666
103	0xbe907a16	-0.28218144
104	0xbe9ef842	-0.3104878
105	0x3ed6ec30	0.41977072
106	0x3e83ec81	0.25766376
107	0x3ee2ee0d	0.44322243
108	0x3ebab44d	0.36465684
109	0xbe0e411e	-0.13892028
110	0x3d088ded	0.033338476
111	0xbccea826	-0.025226664
112	0xbecb519e	-0.39710706
113	0x3e7bfff5	0.24609359
114	0xbd80267e	-0.06257342
115	0xbe99e730	-0.30059195
116	0x3e48c1ab	0.19605128
117	0xbe3863f7	-0.18006884
118	0xbe97691c	-0.2957238
119	0xbe13b2b8	-0.14423645
120	0x3d800bc9	0.06252248
121	0x3d88a358	0.0667178
122	0xbe3b36c9	-0.18282618
123	0x3eb35d52	0.35032135
124	0xbe9902ff	-0.29885098
125	0x3e29ac75	0.16569693
126	0xbece9526	-0.40348166
127	0x3f04ce34	0.5187714
128	0x3e04b3d3	0.12959222
129	0x3e8d4127	0.2758877
130	0xbdbe2b2d	-0.09285579
131	0x3df870da	0.121309
132	0x3ea99ecf	0.33128974
133	0xbdd9ab48	-0.106283724
134	0xbdc366b9	-0.09541077
135	0x3c93436d	0.017976487
136	0x3ee77b2b	0.45211157
137	0xbe47ada1	-0.19499828
138	0xbcb9e9f9	-0.022694575
139	0x3e969ffe	0.2941894
140	0x3db53b97	0.088492565
141	0xbda4a0e5	-0.08038501
142	0xbdf45b3c	-0.11931464
143	0x3edb5d67	0.42844698
144	0x3e108914	0.14114791
145	0xbe6299dd	-0.22129007
146	0xbe62cdbe	-0.22148797
147	0x3ee95000	0.45568848
148	0x3e97d0ac	0.29651392
149	0x3e83b1b4	0.25721514
150	0x3e915daa	0.28391773
151	0x3e79764e	0.24361536
152	0xbdf1837d	-0.117926575
153	0x3e68bbc6	0.2272788
154	0x3e7c3e8e	0.24633238
155	0xbe8c751b	-0.27433094
156	0xbe869d82	-0.26292044
157	0xbeb3e00e	-0.35131878
158	0x3d654038	0.055969447
159	0xbd99a55b	-0.07502242
160	0xbe960572	-0.2930103
161	0xbe96480e	-0.29351848
162	0x3ef42403	0.47683725
163	0xbe36d9e3	-0.17856555
164	0x3d20467c	0.03912972
165	0xbbecee12	-0.0072305286
166	0xb7491468	-1.1985285e-05
167	0xbc1df8c3	-0.009641829
168	0x3d5d9c51	0.054104153
169	0xbee5db9c	-0.4489411
170	0xbecb62f5	-0.39723936
171	0x3dbeb132	0.09311141
172	0x3d22244e	0.039585404
173	0xbe573b40	-0.21018696
174	0xbedb3885	-0.42816558
175	0x3e0a5f26	0.13512859
176	0x3e915f86	0.2839319
177	0x3e0f2229	0.13977875
178	0x3e3d1f89	0.18469061
179	0x3ee8e1b4	0.45484698
180	0x3ca7f264	0.020501323
181	0xbda1e48f	-0.07904922
182	0xbe5ba1f6	-0.21448502
183	0x3e7c2385	0.24622925
184	0x3e3ff88f	0.18747161
185	0x3cc518dd	0.024059707
186	0x3e96ae70	0.2942996
187	0xbeb600f6	-0.35547608
188	0x3e7812f1	0.24225976
189	0x3e5417ed	0.20712252
190	0x3e18d176	0.14923653
191	0x3d01b21b	0.031663995
192	0xbeb3fb00	-0.35152435
193	0x3ebc3145	0.3675634
194	0x3e09207c	0.13391298
195	0x3d1459bf	0.0362184
196	0x3ea6ba45	0.32563987
197	0xbea0b6b1	-0.31389382
198	0xbe73ca3c	-0.23807615
199	0xbdf5f83e	-0.12010239
200	0xbe955b1b	-0.2917107
201	0xbe63df1e	-0.22253081
202	0xbc795a6a	-0.01521931
203	0x3f193f06	0.5986179
204	0xbe5fada9	-0.2184359
205	0x3e0e7b92	0.13914326
206	0x3e0d310c	0.13788241
207	0x3d96a426	0.073555276
208	0x3d556675	0.052099664
209	0x3e100ecc	0.14068145
210	0xbef20b71	-0.47274354
211	0xbe83b83c	-0.25726497
212	0x3e29c4ba	0.16578951
213	0xbed21d98	-0.41038203
214	0xbeab8eef	-0.33507487
215	0x3da6e03d	0.08148239
216	0x3ce92c4b	0.028463503
217	0xbd8578ec	-0.06517205
218	0xbeffccc7	-0.4996092
219	0x3d1ca437	0.038242545
220	0x3e3ba38e	0.1832411
221	0xbef09285	-0.46986786
222	0x3e2209c7	0.15824042
223	0x3dba02c7	0.09082561

temporal_encoder.0.bias f4 [32]
0	0x3dda2cbc	0.10653064
1	0x3e187409	0.14888014
2	0xbe897f3d	-0.26854888
3	0x3cd85414	0.02640728
4	0xbe2b37a0	-0.16720438
5	0xbe9cd6b9	-0.3063257
6	0x3e74dd05	0.23912437
7	0x3db8e811	0.09028638
8	0xb92c5c39	-0.00016437554
9	0xbeb74753	-0.35796604
10	0x3d65e954	0.056130722
11	0x3e010732	0.12600401
12	0xbe8788e5	-0.2647163
13	0xbe9f28dd	-0.31085864
14	0xbeb21510	-0.34781694
15	0xbe9f106c	-0.31067216
16	0xbe983649	-0.29728916
17	0x3c851ff7	0.016250594
18	0x3e777df2	0.24169138
19	0xbc46e42b	-0.01213936
20	0x3e975252	0.29554993
21	0xbe9ed2e5	-0.31020275
22	0xbcf05b56	-0.029340427
23	0xbebcaaca	-0.36849052
24	0xbea86b45	-0.3289434
25	0xbdf1e320	-0.11810899
26	0xbe9f9f06	-0.31176013
27	0x3e2fcf4f	0.17168926
28	0x3d26500d	0.040603686
29	0xbdf54335	-0.11975709
30	0xbe6e63fd	-0.2328033
31	0x3dfa88e9	0.12233145

temporal_encoder.1.weight f4 [32]
0	0x3f74e3e0	0.9566021
1	0x3f7f2d36	0.9967836
2	0x3f8a8ba7	1.0823869
3	0x3f6d918d	0.9280022
4	0x3f85a80a	1.0441906
5	0x3f82bf1b	1.0214571
6	0x3f97bed4	1.1855111
7	0x3f74c633	0.9561493
8	0x3f8c24b4	1.0948701
9	0x3f72c54c	0.948323
10	0x3f7938cb	0.97352284
11	0x3f6cbab5	0.9247239
12	0x3f6df3ef	0.9295034
13	0x3f8809e2	1.0628016
14	0x3f6b3120	0.91871834
15	0x3f7d9b16	0.9906477
16	0x3f715237	0.94266075
17	0x3f6f040a	0.9336554
18	0x3f7a526a	0.97782004
19	0x3f6d470d	0.9268654
20	0x3f68a336	0.9087404
21	0x3f767d22	0.9628469
22	0x3f7da37f	0.990776
23	0x3f85f2fd	1.0464779
24	0x3f721966	0.94570005
25	0x3f82ad5b	1.0209154
26	0x3f7340a2	0.95020497
27	0x3f688f67	0.90843815
28	0x3f6bbe5a	0.9208733
29	0x3f7a62eb	0.97807187
30	0x3f78033b	0.9687993
31	0x3f7292b7	0.9475512

temporal_encoder.1.bias f4 [32]
0	0xbd7d1ecc	-0.06179695
1	0xbca998ce	-0.020702746
2	0x3d24d5ac	0.040242836
3	0xbd437515	-0.04771908
4	0xbd5e3abe	-0.05425524
5	0xbcf0e5c3	-0.029406434
6	0x3e467b2e	0.19382927
7	0xbd1fdb2c	-0.039027378
8	0x3e664f2e	0.22491142
9	0xbd60d24e	-0.054888062
10	0xbd5917d1	-0.05300123
11	0xbd7719a2	-0.06032718
12	0xbd3b4562	-0.045720465
13	0x3d475177	0.048661675
14	0xbd5feea7	-0.054670956
15	0xbd0b94c1	-0.03407741
16	0xbd688a03	-0.056772243
17	0xbd592c91	-0.053021017
18	0xbd1c3dec	-0.03814499
19	0xbc82905a	-0.015937973
20	0xbd6e7729	-0.05821911
21	0xbcdb1eb9	-0.026748048
22	0xbd1ba004	-0.0379944
23	0x3de08d30	0.109644294
24	0xbd8b2b5a	-0.06795378
25	0xbc5eca4b	-0.013598035
26	0xbd2a98c7	-0.041649606
27	0xbd9c5039	-0.07632489
28	0xbd86b599	-0.06577606
29	0xbd2ca068	-0.042145163
30	0xbd409a35	-0.047022063
31	0xbd089f12	-0.033354826

temporal_encoder.1.running_mean f4 [32]
0	0x40aac8fe	5.337035
1	0xbe2ed38e	-0.17072889
2	0xbeb7c00c	-0.35888708
3	0xc00e12c7	-2.219896
4	0xbeb3e41e	-0.35134977
5	0xbf444f37	-0.7668337
6	0x3e6c0865	0.23050077
7	0x40996d18	4.794567
8	0x3d3f894c	0.046761796
9	0xc00bdea2	-2.1854634
10	0x4008ce92	2.137608
11	0x403aff45	2.9218304
12	0xbf555112	-0.8332683
13	0xbf75f3c1	-0.96075064
14	0xc0b43d02	-5.6324472
15	0x3ec86bf4	0.39144862
16	0xc063fcff	-3.5623167
17	0xc0c48451	-6.141152
18	0x4013f3e3	2.3117607
19	0xbf4c14db	-0.7971932
20	0xc0792a30	-3.8932
21	0xc03b76bb	-2.9291217
22	0xbf9ba5c6	-1.2159965
23	0xbeb68ac9	-0.3565276
24	0xc0827b8c	-4.0775814
25	0x3ec7aea0	0.39000416
26	0xc0f5fd5c	-7.6871777
27	0x40340202	2.8126225
28	0xc08d947c	-4.4243755
29	0x3f41f13f	0.7575874
30	0x3fb18a97	1.3870419
31	0x404c50d1	3.1924326

temporal_encoder.1.running_var f4 [32]
0	0x41821d30	16.264252
1	0x3eed74c4	0.46378148
2	0x3df94613	0.12171569
3	0x4024239f	2.5646741
4	0x3e9ef74b	0.31048045
5	0x3f209c47	0.6273846
6	0x3d8e2d4e	0.06942235
7	0x4127d66b	10.489848
8	0x3e5d1d9b	0.21593325
9	0x3ff0eae8	1.8821688
10	0x40ad67d4	5.4189243
11	0x404f3413	3.2375534
12	0x3f8c4092	1.0957205
13	0x3f942983	1.1575168
14	0x4141c700	12.111084
15	0x3f91f7bb	1.1403726
16	0x40c31cbf	6.097259
17	0x416ef342	14.934389
18	0x409d74af	4.9204936
19	0x401ba17c	2.4317312
20	0x40e640f8	7.1954308
21	0x41014f7b	8.081904
22	0x4067414e	3.613361
23	0x3dafce17	0.085842304
24	0x4124c5d0	10.298294
25	0x3f25cdc7	0.64767116
26	0x41ba706c	23.304893
27	0x4025a51d	2.5882027
28	0x40db071d	6.8446183
29	0x3fc2891a	1.519809
30	0x4016fce2	2.3591847
31	0x40887655	4.264445

temporal_encoder.4.weight f4 [32, 32]
0	0x3e1a036f	0.15040372
1	0x3e29f320	0.16596651
2	0x3dd2d808	0.10295111
3	0x3dbf414c	0.09338626
4	0xbd19a286	-0.03750851
5	0x3deab9e6	0.114612386
6	0x3e3b7ab9	0.18308534
7	0xbb82864d	-0.003983295
8	0x3db96aca	0.090535715
9	0x3b196c08	0.002341034
10	0xbd7eba8f	-0.062189635
11	0xbd98b62c	-0.074566215
12	0xbcbce195	-0.023056785
13	0xbdab92e4	-0.083776265
14	0x3da5a12c	0.08087382
15	0xbe069521	-0.13142826
16	0xbdbb99cf	-0.09160196
17	0xbc163ade	-0.0091693085
18	0xbe5b8344	-0.21436793
19	0xbdebcfa7	-0.11514216
20	0x3cbc8c0a	0.023015995
21	0xbd8840eb	-0.06653007
22	0x3d53f4b0	0.051747024
23	0xbe2c9824	-0.16854912
24	0x3ca29d8f	0.01985052
25	0xbda572e2	-0.08078553
26	0xbd8a8968	-0.067644894
27	0x3c978107	0.018494142
28	0xbd60fcf3	-0.05492873
29	0x3e0876ab	0.13326518
30	0xbd51460d	-0.051092196
31	0xbbfd053b	-0.007721571
32	0xbda15d8d	-0.078791715
33	0xbdd9d438	-0.10636181
34	0x3dc9336d	0.09824262
35	0xbe1d0f5d	-0.15337892
36	0xbd62257b	-0.055211525
37	0x3db3f015	0.087860264
38	0x3d67d388	0.056598216
39	0x3cbef8b5	0.023311952
40	0x3de8ab5a	0.11360808
41	0x3d63ba76	0.055597745
42	0xbe0e8fb0	-0.13922
43	0x3df7d4c5	0.121011294
44	0xbda5bfd5	-0.0809323
45	0x3d3af2cb	0.0456417
46	0x3d1f68b3	0.03891821
47	0xbe09c4a2	-0.13453916
48	0x3df07d66	0.11742668
49	0xbe04fd77	-0.12987314
50	0x3def6c24	0.11690548
51	0xbe14399c	-0.14475101
52	0xbd800769	-0.062514134
53	0xbe0e89a5	-0.13919695
54	0x3c4b8ae5	0.012423252
55	0xbe333b18	-0.17503011
56	0xbd2ab5a2	-0.041677125
57	0xbe432df8	-0.19060504
58	0xbe1a740d	-0.15083332
59	0x3ca4cc2c	0.020116888
60	0xbd87463f	-0.06605195
61	0xbde2d691	-0.110760815
62	0x3d756ac9	0.05991629
63	0x3dd43658	0.10361928
64	0xbc339242	-0.010960164
65	0xbe335fec	-0.1751706
66	0x3e639f72	0.22228792
67	0xbdf8839a	-0.12134476
68	0x3e736394	0.23768455
69	0x3c227e41	0.009917797
70	0x3d6f67b1	0.058448497
71	0x3da5a542	0.08088161
72	0xbe6eb848	-0.23312485
73	0xbe2db73d	-0.16964431
74	0x3dce1d1f	0.10064148
75	0xbe01296d	-0.12613459
76	0x3e1bd16c	0.15216607
77	0xbd76e735	-0.06027909
78	0xbd88c369	-0.066778965
79	0x3dfd20cf	0.12359773
80	0x3d4fff98	0.050780863
81	0x3c2ef48a	0.01067842
82	0x35d73a00	1.6035629e-06
83	0xbd968c67	-0.07350998
84	0x3d9b0cf4	0.0757083
85	0xbcd1808b	-0.02557399
86	0x3dc3d0fc	0.09561345
87	0x3d83a244	0.06427434
88	0x3db6f0f4	0.08932677
89	0x3c0f126f	0.008732422
90	0xbda13e83	-0.07873251
91	0xbe04e6c0	-0.12978649
92	0x3e0198dd	0.12655969
93	0xbda61cfb	-0.08110996
94	0xbcd0b7a5	-0.025478194
95	0x3d4096bf	0.047018763
96	0x3e127c33	0.1430519
97	0x3c90d0e7	0.017677737
98	0x3afad8fd	0.0019138154
99	0xbdb8c715	-0.09022347
100	0x3e4a111f	0.19733094
101	0xbddb4814	-0.10707107
102	0xbde9e8d3	-0.11421361
103	0x3d5cd95f	0.05391824
104	0xbddf305b	-0.10897895
105	0xbc60db47	-0.013724155
106	0xbe22e174	-0.15906316
107	0xbcb028d1	-0.021503838
108	0xbdc9ea16	-0.098591015
109	0xbd5196b2	-0.051169105
110	0x3d869d86	0.06573014
111	0x3ddcc497	0.10779684
112	0x3e070211	0.13184382
113	0xbd92dc29	-0.071708985
114	0xbdbcee97	-0.09225195
115	0xbd2a3ceb	-0.041562002
116	0xbca2645e	-0.01982325
117	0x3d5cc437	0.053898063
118	0x3e0695b3	0.13143043
119	0xbd8949d2	-0.06703533
120	0x3e099f84	0.13439757
121	0xbe156887	-0.14590655
122	0x3d31569e	0.043295495
123	0x3cd273c9	0.025689976
124	0x3ba60a67	0.005067158
125	0xbe1d0c55	-0.15336736
126	0x3e013efe	0.12621686
127	0x3e2570bc	0.16156286
128	0x3dc49b33	0.095999144
129	0x3dca7dc3	0.098872684
130	0xbdde168e	-0.10844146
131	0xbcfb3b52	-0.030667935
132	0x3df18834	0.11793557
133	0x3dee1153	0.11624398
134	0xbe6a3027	-0.22869931
135	0xbe5baeaf	-0.21453355
136	0xbe0c8700	-0.13723373
137	0x3d65a321	0.056063775
138	0xb99138c0	-0.00027698837
139	0x3c1a2cb3	0.009410071
140	0xbdb06196	-0.08612363
141	0x3ddff794	0.10935894
142	0x3dbb2c6a	0.09139331
143	0xbe16c37b	-0.14723007
144	0xbdd91dc0	-0.106013775
145	0xbdb29c6c	-0.08721241
146	0x3d0c8529	0.03430668
147	0xbe0a5840	-0.13510227
148	0x3c35f66b	0.011106114
149	0xbe058fc1	-0.13043119
150	0xbd8d7dbe	-0.06908749
151	0x3e0c0c6e	0.13676617
152	0x3cc01139	0.023445712
153	0x3e2b8b63	0.1675239
154	0x3e064aba	0.13114443
155	0xbdf0fde0	-0.11767173
156	0x3d8e3c48	0.069450915
157	0xbd926bbd	-0.07149456
158	0xbdfaab99	-0.12239761
159	0xbdebb75e	-0.11509584
160	0x3dcc7c01	0.09984589
161	0xbd29605f	-0.041351672
162	0x3e233c8c	0.15941066
163	0xbc899c8b	-0.016798278
164	0x3d92e39a	0.07172318
165	0xbd06fc80	-0.032955647
166	0xbe53e9e4	-0.20694691
167	0xbdcdcffc	-0.100494355
168	0xbe90c158	-0.2827251
169	0xbc67ec9f	-0.014155536
170	0x3d7bdc1e	0.061489217
171	0x3b5fbb00	0.003413856
172	0x3d161070	0.03663677
173	0x3cefa7b5	0.029254774
174	0xbc2b8c28	-0.010470428
175	0xbdc24dd6	-0.09487502
176	0x3e1264e5	0.142963
177	0xbd343138	-0.04399225
178	0x3c95f855	0.01830689
179	0x3d118faf	0.035537418
180	0x3a9f1d93	0.0012139551
181	0xbd1a8e6a	-0.037733473
182	0xbcd2f017	-0.02574925
183	0x3dd0e9ee	0.102008685
184	0xbcbb3737	-0.022853477
185	0x3d979ce9	0.07402975
186	0xbc0033c9	-0.007824847
187	0x3d9a2f1a	0.07528515
188	0xbd1fe4bb	-0.039036494
189	0xbdb82d3a	-0.08993001
190	0x3c3fb3c4	0.011700574
191	0xbdc642e4	-0.09680727
192	0xbd9d595c	-0.076830596
193	0xbe3fe411	-0.18739344
194	0xbd87f8c9	-0.06639249
195	0x3e21ea40	0.15812016
196	0x3bdd954c	0.0067621823
197	0x3dfc4bc1	0.123191364
198	0xbe254530	-0.16139674
199	0xbe05180d	-0.12997456
200	0x3d3b7d12	0.045773573
201	0xbde44177	-0.11145299
202	0x3dd9261f	0.10602974
203	0xbd783e08	-0.060606033
204	0xbc88f3eb	-0.016717872
205	0x3da5a520	0.08088136
206	0x3d81cfe9	0.06338484
207	0x3dd36ff6	0.10324089
208	0xbe0a151b	-0.13484614
209	0xbdfcc571	-0.123423465
210	0x3e05ab7c	0.13053697
211	0xbe00896c	-0.12552422
212	0x3d88d571	0.06681336
213	0xbe170c50	-0.1475079
214	0x3c04f210	0.008114353
215	0xbe3e21e0	-0.1856761
216	0x3da82f9b	0.08212205
217	0xbe6b0951	-0.22952773
218	0xbd1ffad1	-0.039057557
219	0xbcab70e8	-0.020927861
220	0x3de13e46	0.10998206
221	0xbd5796fd	-0.052634228
222	0xbd2c9e0c	-0.042142913
223	0x3cafa582	0.021441225
224	0x3e23ae83	0.1598454
225	0x3df84f8e	0.12124549
226	0x3d1cff28	0.038329273
227	0xbda63c85	-0.08117012
228	0x3d40229b	0.046908002
229	0xbdedaa2d	-0.11604724
230	0xbe67a740	-0.22622395
231	0x3df834a8	0.121194184
232	0x3d90036b	0.07031902
233	0xbd2a1173	-0.041520547
234	0x3dff9868	0.12480241
235	0xbd57f116	-0.05272015
236	0x3d86304f	0.06552183
237	0x3b4a870c	0.0030903248
238	0x3e02378f	0.12716506
239	0xbda7305a	-0.08163519
240	0xbdc6d8bc	-0.097093076
241	0x3e2c3f0a	0.16820922
242	0x3e1bc5cd	0.15212174
243	0xbd9d5fc6	-0.07684283
244	0x3de25a94	0.11052433
245	0xbd8f80d3	-0.07006993
246	0x3d83e9cc	0.064410776
247	0x3e6bec3c	0.23039335
248	0xbda46b50	-0.08028281
249	0x3de83713	0.113386296
250	0x3e53e778	0.20693767
251	0xbe23e8ec	-0.16006821
252	0xbdbf3011	-0.0933534
253	0x3c806a99	0.01567583
254	0x3e190a0f	0.14945243
255	0xbc0aeebc	-0.00847977

temporal_encoder.4.bias f4 [32]
0	0x3dc4ebc7	0.096152835
1	0xbd247f0a	-0.040160216
2	0xbd4cad93	-0.04997022
3	0x3d88b9c9	0.06676061
4	0xbe131ae8	-0.14365733
5	0x3da1db0b	0.07903107
6	0xbde64f27	-0.11245566
7	0xbd7dab00	-0.061930656
8	0x3e253f9e	0.1613755
9	0xbdfee8f7	-0.12446778
10	0xbd66db46	-0.05636146
11	0xbdea214d	-0.11432133
12	0x3c8e2b97	0.01735477
13	0x3d1bde16	0.038053595
14	0xbe31a421	-0.17347766
15	0x3da9f972	0.08299531
16	0x3d14cc94	0.036327913
17	0x3dc8019a	0.097659305
18	0x3df8da8a	0.12151058
19	0x3e201fc8	0.15637124
20	0xbde1a39a	-0.11017533
21	0xbc38b089	-0.011272558
22	0xbd3cc28e	-0.04608398
23	0x3d7a6cd8	0.061138958
24	0x3e0249c6	0.12723455
25	0x3c9c6a92	0.019093785
26	0xbe28a592	-0.1646941
27	0x3ce449ef	0.027867286
28	0x3d3c0186	0.04589989
29	0x3d661d16	0.056180082
30	0xbe159491	-0.14607455
31	0x3dc3c63a	0.09559293

temporal_encoder.5.weight f4 [32]
0	0x3f6e9e10	0.93209934
1	0x3f782ab2	0.9694015
2	0x3f7f0577	0.99617714
3	0x3f6a26ea	0.9146563
4	0x3f65e164	0.89797044
5	0x3f7e58c6	0.9935421
6	0x3f691aa7	0.91056293
7	0x3f6c9ba7	0.92425007
8	0x3f669629	0.90072876
9	0x3f7554f7	0.9583277
10	0x3f710312	0.9414531
11	0x3f746a61	0.9547482
12	0x3f6cb024	0.9245627
13	0x3f636048	0.8881879
14	0x3f72e912	0.9488689
15	0x3f6f4a3f	0.93472666
16	0x3f645dd0	0.89205647
17	0x3f65958b	0.8968131
18	0x3f6c98f8	0.9242091
19	0x3f717fa5	0.94335395
20	0x3f6c676b	0.92345303
21	0x3f6d52e0	0.9270458
22	0x3f7095ab	0.93978375
23	0x3f6dbc30	0.92865276
24	0x3f7598ab	0.9593608
25	0x3f687c93	0.90815085
26	0x3f677fe9	0.9042955
27	0x3f6aae71	0.91672426
28	0x3f64adee	0.89327896
29	0x3f6a0a17	0.91421646
30	0x3f6ce11f	0.9253101
31	0x3f768bb9	0.9630695

temporal_encoder.5.bias f4 [32]
0	0x3d9ee83e	0.077591404
1	0xbc85aa44	-0.01631654
2	0x3db2a0ca	0.08722074
3	0xbd15fa86	-0.03661587
4	0xbc242058	-0.010017477
5	0x3dde4fe4	0.10855082
6	0xbd294cf6	-0.04133316
7	0xbce683ef	-0.028139083
8	0xbd17a40d	-0.037021685
9	0x3c6b729f	0.0143705895
10	0xbca83eb5	-0.020537714
11	0x3cb5ce30	0.022193044
12	0xbbee92e7	-0.0072806957
13	0xbb0743b5	-0.0020639722
14	0x3d3e94c2	0.046528585
15	0xbd8d9f71	-0.06915177
16	0xbd3c3b11	-0.045954768
17	0xbd16297a	-0.03666065
18	0x3d06ead7	0.032938804
19	0xbc1d1fa0	-0.0095900595
20	0xbd015e41	-0.03158403
21	0xbc88705a	-0.016655136
22	0x3d2b1d93	0.04177625
23	0xbd00e299	-0.0314661
24	0x3d33d9db	0.043908935
25	0xbc83c7c8	-0.016086474
26	0xbb77c9b0	-0.0037809424
27	0xbcead02b	-0.028663715
28	0xbcc20377	-0.023683293
29	0x3ccc9993	0.024975574
30	0xbbab532c	-0.0052284207
31	0xbc9e4010	-0.019317657

temporal_encoder.5.running_mean f4 [32]
0	0x3da703f0	0.08155048
1	0xbeb5ac93	-0.35483226
2	0x3cbc9269	0.023019033
3	0x3d04837e	0.032351963
4	0xbed475c3	-0.41496095
5	0xbd8499e8	-0.06474668
6	0xbede9b6a	-0.43477947
7	0x3e988672	0.29790074
8	0x3e4e4768	0.20144427
9	0xbe57b763	-0.2106605
10	0x3db38a4a	0.08766611
11	0xbe133751	-0.1437657
12	0xbe0b4a9e	-0.13602683
13	0x3ed7e0c0	0.42163658
14	0xbe38642b	-0.18006961
15	0xbe126d6d	-0.14299555
16	0x3e81a71a	0.253228
17	0x3bd018f4	0.006350631
18	0x3f052e79	0.52024037
19	0x3e5c1589	0.2149259
20	0x3da522e0	0.080632925
21	0xbd42778c	-0.04747729
22	0xbe440271	-0.19141556
23	0x3d863ef5	0.06554977
24	0xbc2df44c	-0.010617327
25	0xbcf3191b	-0.029675057
26	0xbe5ff3b8	-0.21870315
27	0xbe3b6d27	-0.18303357
28	0xbe2934a9	-0.16523995
29	0x3e08805c	0.13330215
30	0xbc24bedf	-0.010055273
31	0xbe21b271	-0.15790726

temporal_encoder.5.running_var f4 [32]
0	0x3e81818e	0.25294155
1	0x3f0d523a	0.5520359
2	0x3ebfd27d	0.37465277
3	0x3e93c237	0.28859112
4	0x3e8f7406	0.28018206
5	0x3e922f2d	0.28551617
6	0x3e601eee	0.21886799
7	0x3e59fe00	0.212883
8	0x3ea1feaa	0.31639606
9	0x3e9cadb8	0.30601287
10	0x3ea0aea3	0.31383237
11	0x3ebc8c5c	0.36825836
12	0x3e3d1394	0.184645
13	0x3e5e8693	0.21731023
14	0x3e7b6837	0.24551474
15	0x3e4a1358	0.19733942
16	0x3e071a80	0.13193703
17	0x3e3afb1c	0.18259853
18	0x3e8f0524	0.2793361
19	0x3e33d586	0.17561921
20	0x3e81d8a7	0.25360605
21	0x3e237895	0.15963967
22	0x3e7b91d0	0.24567342
23	0x3e089d61	0.13341285
24	0x3ed1116a	0.40833598
25	0x3ef3a5b4	0.4758736
26	0x3e55e434	0.20887834
27	0x3ef0ffff	0.4707031
28	0x3e9ba344	0.30398
29	0x3e246bdd	0.16056772
30	0x3e9b93f9	0.30386332
31	0x3e8e8d50	0.27842188

graph_encoder.0.weight f4 [32, 8]
0	0xbd06e27d	-0.03293084
1	0x3d92972e	0.071577415
2	0x3e6240d4	0.22095042
3	0xbec5c695	-0.3862807
4	0xbed51b2c	-0.41622293
5	0xbd4e1e04	-0.050321594
6	0xbd78791d	-0.060662378
7	0x3eab34ba	0.33438665
8	0x3eaea3c0	0.34109306
9	0xbd91d35a	-0.0712039
10	0x3d31b41d	0.04338466
11	0xbe64c5b7	-0.22341047
12	0xbe67c5c2	-0.22634032
13	0x3e8dd588	0.27701974
14	0xbe70449b	-0.23463671
15	0xbe426fd3	-0.1898797
16	0xbd1cc8d7	-0.038277473
17	0xbdb2dc8e	-0.08733474
18	0x3e6ec979	0.23319043
19	0x3e58eb1d	0.21183439
20	0x3ec8279f	0.39092728
21	0x3c89ae0d	0.016806627
22	0x3cc5f069	0.024162488
23	0xbead65fb	-0.33866867
24	0x3e8b0e56	0.27159375
25	0xbe4fe3e1	-0.20301773
26	0x3d9f7706	0.07786374
27	0x3db08f3f	0.08621072
28	0xbde7a14c	-0.11310062
29	0x3e742fab	0.23846309
30	0x3ea09ab2	0.31368023
31	0x3c411130	0.011783883
32	0xbe9ad4a6	-0.30240363
33	0xbe2a00a9	-0.16601814
34	0x3e452126	0.19250926
35	0x3e073342	0.13203147
36	0xbe22439c	-0.15846103
37	0xbd71e43c	-0.059055552
38	0x3e8180ad	0.25293484
39	0x3d91bd35	0.071161665
40	0xbd291c09	-0.041286502
41	0xbd74a49b	-0.059727293
42	0x3e3f1e63	0.18663935
43	0x3b7563e4	0.0037443573
44	0x3ea889c4	0.32917607
45	0x3e476b8b	0.19474618
46	0x3d5bf50e	0.0537005
47	0xbd8e3c57	-0.06945103
48	0x3e420434	0.18946916
49	0xbe37032f	-0.17872308
50	0x3e45b057	0.1930555
51	0xbeb05ead	-0.34447232
52	0x3e4cbb0c	0.19993228
53	0xbdc3555d	-0.09537766
54	0x3d5ff68e	0.054678492
55	0x3e214f86	0.15752992
56	0xbb8a6dcc	-0.0042245146
57	0x3eb2815b	0.34864315
58	0x3e91d958	0.28486133
59	0x3ccc25de	0.0249204
60	0x3ead9921	0.3390589
61	0x3e6510ce	0.22369692
62	0x3d4c87fe	0.04993438
63	0xbd9b6a6f	-0.0758866
64	0x3ef6c0ef	0.48194072
65	0xbeb9fc58	-0.36325336
66	0x3d91795f	0.07103228
67	0xbbb60952	-0.0055553103
68	0x3eb21deb	0.3478845
69	0xbe96caf9	-0.2945173
70	0xbe2d7055	-0.16937383
71	0xbe39b20f	-0.1813433
72	0x3e928ac5	0.28621498
73	0xbe44c844	-0.1921702
74	0xbcb70063	-0.022339052
75	0x3ec93382	0.3929711
76	0xbe9e6f04	-0.30944073
77	0x3dd49c14	0.10381332
78	0xbda5fd42	-0.08104946
79	0xbd67287e	-0.0564351
80	0x3ddb3f78	0.10705465
81	0xbe56b5c7	-0.2096778
82	0xbcfb8a84	-0.030705698
83	0xbd919b57	-0.07109707
84	0xbdc1200d	-0.09429941
85	0xbe96b512	-0.2943502
86	0xbdcb6588	-0.09931475
87	0xbcd4471b	-0.025912812
88	0x3ed63c58	0.41842914
89	0xbdec4979	-0.11537451
90	0x3c24b0f7	0.010051957
91	0xbe928b49	-0.2862189
92	0xbe140f40	-0.14458942
93	0xbe24ce3d	-0.16094299
94	0xbe32e126	-0.174687
95	0xbe2168ca	-0.1576263
96	0xbe32b757	-0.17452751
97	0x3ec4391b	0.38324818
98	0xbea597bc	-0.32342327
99	0x3d861e37	0.06548732
100	0xbc62df9b	-0.013847257
101	0x3e4b4b66	0.19852981
102	0x3eb436e3	0.35198125
103	0xbe237b89	-0.15965094
104	0xbdfa07c1	-0.1220851
105	0x3eb584d2	0.35452896
106	0xbc4a04e9	-0.012330272
107	0x3d73f510	0.05955988
108	0x3e452894	0.1925376
109	0x3dea7caf	0.11449563
110	0x3ce033e9	0.027368503
111	0x3e9f5593	0.31119975
112	0xbb574778	-0.0032848995
113	0xbd8ed557	-0.06974285
114	0xbe9b2127	-0.3029873
115	0x3e14d2de	0.14533564
116	0xbe0b7ac5	-0.13621052
117	0xbdddd997	-0.108325176
118	0x3dce0c8e	0.10060988
119	0xbea67e0f	-0.3251805
120	0xbe04a7f8	-0.129547
121	0x3dc54471	0.09632195
122	0x3d2682dc	0.04065214
123	0x3da6721c	0.081272334
124	0x3dc5999d	0.0964844
125	0xbd279495	-0.040913183
126	0xb7f5150a	-2.9216073e-05
127	0x3cd16479	0.025560604
128	0x3e3b8506	0.18312463
129	0xbe1844dd	-0.1487002
130	0x3cf0c6cb	0.029391667
131	0xbdb3be06	-0.087764785
132	0x3ec54969	0.3853257
133	0xbd3eb4f1	-0.046559278
134	0xbda0ccd9	-0.078515716
135	0x3eb1f2c3	0.34755525
136	0xbb956aeb	-0.0045598648
137	0x3d4a8bdb	0.049449783
138	0x3e45d201	0.19318391
139	0xbea074c2	-0.3133908
140	0xbeb8159f	-0.35953996
141	0x3c9eb89e	0.019375142
142	0x3da7ad8d	0.08187399
143	0xbda77d0b	-0.08178147
144	0xbda6e07a	-0.08148284
145	0xbe8cb07e	-0.27478403
146	0xbea624ac	-0.32449853
147	0x3e5478f0	0.20749259
148	0xbd9dbc6c	-0.07701954
149	0xbe395417	-0.18098484
150	0x3e22d375	0.15900977
151	0x3ddbe5b9	0.107371755
152	0xbcc2f921	-0.023800435
153	0x3e3cb432	0.18428114
154	0xbdd8ee8a	-0.10592373
155	0x3e8b11b4	0.27161944
156	0x3c1c35e9	0.009534338
157	0x3e90f08e	0.2830853
158	0x3e2ca8c9	0.16861261
159	0x3ec286f6	0.37993592
160	0x3cbb6e40	0.02287972
161	0xbdad1b41	-0.08452464
162	0xbe88f37d	-0.26748267
163	0xbec7f454	-0.39053595
164	0xbe4c85c3	-0.19972901
165	0x3caf7bd3	0.021421349
166	0x3e9ec898	0.31012416
167	0xbe7cd213	-0.24689512
168	0x3e50057a	0.20314589
169	0xbe645074	-0.22296315
170	0x3e052608	0.13002789
171	0x3e8dda77	0.27705738
172	0xba8f243d	-0.0010920834
173	0x3e2db663	0.16964106
174	0xbe5334f6	-0.20625672
175	0x3e346ae0	0.17618895
176	0x3dc52c1c	0.09627554
177	0xbd76079f	-0.06006586
178	0xbe4d895e	-0.20071933
179	0x3dd02964	0.10164145
180	0xbd56624a	-0.05233983
181	0xbe6145dd	-0.21999307
182	0xbcb56571	-0.022143098
183	0xbe3905d0	-0.18068624
184	0xbe28e991	-0.16495349
185	0xbd4b43aa	-0.049625076
186	0xbeb5f50b	-0.35538515
187	0x3ef1399b	0.47114262
188	0x3da2f425	0.07956723
189	0xbd0f9146	-0.035050653
190	0x3d0ee8c1	0.03488994
191	0xbd215ea5	-0.0393969
192	0xbeafb790	-0.34319735
193	0x3e7f3057	0.24920784
194	0x3e3fa7f1	0.18716408
195	0x3d8b5fd1	0.06805385
196	0x3eae0cd4	0.33994162
197	0xbd36e5e9	-0.044652853
198	0xbc4ea088	-0.012611516
199	0xbd059ad4	-0.03261836
200	0xbe6e340a	-0.23262039
201	0x3e535c61	0.20640709
202	0xbd8ade90	-0.06780732
203	0xbd8c9831	-0.06864966
204	0x3e8928d2	0.26788956
205	0x3e833156	0.25623578
206	0xbe5a0c17	-0.21293674
207	0x3ee505b1	0.44730905
208	0xbd7c2a85	-0.061563987
209	0x3c294523	0.010331425
210	0x3e2234fa	0.15840521
211	0xbcdab346	-0.026696812
212	0x3eed28ea	0.46320277
213	0x3ead7eb1	0.3388572
214	0x3e83b1ef	0.2572169
215	0xbe1ef4f7	-0.15523134
216	0x3db75594	0.089518696
217	0xbe1e491f	-0.15457581
218	0x3e1b6eaf	0.15178941
219	0x3dae5ecc	0.08514175
220	0xbe362bfc	-0.17790216
221	0x3ec09319	0.37612227
222	0x3dcf15ee	0.10111605
223	0x3e798b4c	0.24369544
224	0x3d0380b0	0.032105148
225	0xbe9fbf6a	-0.31200725
226	0xbeb28af6	-0.34871644
227	0x3e13a3f7	0.14418016
228	0xbe8aff4a	-0.27147895
229	0x3b60cd44	0.0034302035
230	0xbe5c74db	-0.21528952
231	0x3d6d7db9	0.057981227
232	0xbd17da4c	-0.03707342
233	0x3e9eda7d	0.31026068
234	0x3e737bfe	0.23777768
235	0x3d9ffd34	0.078119665
236	0x3ecce5e3	0.4001914
237	0x3da0d8fe	0.07853888
238	0xbda9af27	-0.08285361
239	0xbe9d8820	-0.30767918
240	0xbe93c9e1	-0.2886496
241	0x3e43130c	0.19050235
242	0xbdc950fd	-0.098299004
243	0xbe3ab6d0	-0.182338
244	0x3f08d145	0.5344432
245	0x3d87010b	0.06591996
246	0xbd8f57c6	-0.06999163
247	0xbd370738	-0.04468462
248	0x3dae4fa7	0.08511286
249	0xbede1445	-0.4337484
250	0xbdb600d0	-0.08886874
251	0xbee2a235	-0.4426438
252	0xbc99d2a3	-0.018777197
253	0xbe2b17d5	-0.1670831
254	0xbded6929	-0.11592323
255	0xbe9f73a7	-0.31142923

graph_encoder.0.bias f4 [32]
0	0x3e37c24e	0.17945215
1	0xbe6d9398	-0.23200834
2	0x3e2bb329	0.16767563
3	0xbdc6778a	-0.09690769
4	0x3e8703cc	0.26370084
5	0x3e97f6c8	0.29680467
6	0x3e9bfa85	0.3046457
7	0xbdc94315	-0.09827248
8	0x3e9db150	0.3079934
9	0xbd11a47f	-0.035557266
10	0xbdffa3e9	-0.12482435
11	0x3e9146fa	0.28374463
12	0xbe1a1131	-0.1504562
13	0x3addf4d8	0.0016933931
14	0xbeb04200	-0.34425354
15	0x3ea5ba35	0.32368627
16	0xbe5ba87e	-0.21450993
17	0xbe17ec6a	-0.14836279
18	0x3dd7041f	0.10498833
19	0xbe113feb	-0.14184539
20	0xbe113f7e	-0.14184377
21	0x3e6aa5fc	0.2291488
22	0x3d1dd417	0.038532343
23	0xbc9682df	-0.018372951
24	0x3de97e34	0.114010245
25	0x3cd05691	0.025431903
26	0x3e4c53be	0.1995382
27	0x3e4bf410	0.19917321
28	0x3ce85149	0.028359072
29	0xbd18f057	-0.03733858
30	0x3e6aa6ac	0.22915143
31	0xbe972044	-0.29516804

graph_encoder.1.weight f4 [32]
0	0x3f8f1afa	1.1180108
1	0x3f82f473	1.023085
2	0x3f777bde	0.9667338
3	0x3f74a488	0.95563555
4	0x3f7b9c78	0.9828563
5	0x3f6ae75f	0.91759294
6	0x3f806cf5	1.0033251
7	0x3f789a60	0.9711056
8	0x3f717f48	0.9433484
9	0x3f80cfed	1.0063454
10	0x3f7aa677	0.97910255
11	0x3f8bc6d3	1.0920051
12	0x3f6f3bc8	0.93450594
13	0x3f74ea88	0.95670366
14	0x3f76f194	0.9646237
15	0x3f6b16a0	0.918314
16	0x3f7be495	0.98395663
17	0x3f873252	1.0562232
18	0x3f71453a	0.94246256
19	0x3f8131e7	1.0093354
20	0x3f75272a	0.95762885
21	0x3f794272	0.9736701
22	0x3f83300f	1.0249041
23	0x3f757a2a	0.9588953
24	0x3f828a1c	1.0198398
25	0x3f7e2f34	0.99290776
26	0x3f681e74	0.9067147
27	0x3f80aee9	1.0053378
28	0x3f771453	0.9651539
29	0x3f84ba35	1.0369326
30	0x3f7a099d	0.9767092
31	0x3f8a999c	1.0828128

graph_encoder.1.bias f4 [32]
0	0xbdb3caee	-0.0877894
1	0xbd823e6c	-0.06359562
2	0x38d0aefc	9.950806e-05
3	0xbda7b06c	-0.08187947
4	0xbda4098a	-0.08009632
5	0xbe1a9868	-0.15097201
6	0xbc704f31	-0.014667318
7	0xbdc75785	-0.0973349
8	0xbe555021	-0.20831348
9	0x3d79a1d7	0.060945358
10	0xbe56674d	-0.20937844
11	0xbddde275	-0.10834209
12	0xbdd11df8	-0.10210794
13	0xbdf89af3	-0.12138929
14	0xbe23676e	-0.15957424
15	0xbd421c5f	-0.047390338
16	0xbc6dfac0	-0.0145251155
17	0xbde18735	-0.11012117
18	0xbd391b8f	-0.045192298
19	0xbd397dac	-0.045285866
20	0xbc1dbc3b	-0.009627397
21	0x3c3d685a	0.011560524
22	0xbdf27ad2	-0.11839832
23	0xbd7937f0	-0.06084436
24	0x3da38281	0.07983876
25	0x3cd80215	0.02636818
26	0xbe14eab2	-0.14542654
27	0xbda5a6ee	-0.0808848
28	0xbe558703	-0.20852284
29	0x3ddb14e7	0.10697346
30	0x3c714f41	0.014728368
31	0xbdc9a663	-0.09846189

graph_encoder.1.running_mean f4 [32]
0	0xc50f5970	-2293.5898
1	0xc53b3c9a	-2995.7876
2	0x43b170cc	354.88123
3	0x46073185	8652.38
4	0x4579d661	3997.3987
5	0x458114bf	4130.5933
6	0xc2d80017	-108.000175
7	0x458db108	4534.129
8	0xc5deea4d	-7133.2876
9	0x43bedb8d	381.71524
10	0xc5cac08f	-6488.07
11	0xc5f477ab	-7822.9585
12	0x45f3b182	7798.1885
13	0x459be024	4988.0176
14	0xc4e7f8cf	-1855.7753
15	0x438368ea	262.81964
16	0x4497ebb8	1215.3662
17	0xc49d40b5	-1258.0221
18	0x44bda028	1517.0049
19	0x46237a94	10462.645
20	0x44d10446	1672.1335
21	0x44953d36	1193.9128
22	0xc58934e4	-4390.6113
23	0x44f78b79	1980.3585
24	0x4385eee7	267.86642
25	0x455dcc38	3548.7637
26	0x461042d9	9232.712
27	0x4602c33c	8368.809
28	0xc554f866	-3407.525
29	0xc45d75e9	-885.84235
30	0x4395a530	299.29053
31	0xc6007934	-8222.301

graph_encoder.1.running_var f4 [32]
0	0x48d1c79f	429628.97
1	0x494793d0	817469.0
2	0x47d47f8c	108799.09
3	0x4a8a6655	4.5350825e+06
4	0x498104e1	1.0569241e+06
5	0x4980e898	1.056019e+06
6	0x47b02deb	90203.836
7	0x499acae3	1.2680604e+06
8	0x4a34d72e	2.9628915e+06
9	0x4804e52c	136084.69
10	0x4a15b305	2.4526732e+06
11	0x4a4602d1	3.2442122e+06
12	0x4a77ad66	4.0579455e+06
13	0x499b03cc	1.2698815e+06
14	0x488924d8	280870.75
15	0x4659b50d	13933.263
16	0x485453cd	217423.2
17	0x483833f9	188623.89
18	0x488ce359	288538.78
19	0x4aaec0ae	5.726295e+06
20	0x496a6272	960039.1
21	0x48b4bab6	370133.7
22	0x498682de	1.1019158e+06
23	0x488766c9	277302.28
24	0x46a92de1	21654.94
25	0x49727b35	993203.3
26	0x4aa428c3	5.3791695e+06
27	0x4a6e8106	3.9076495e+06
28	0x495b4ac4	898220.25
29	0x48065900	137572.0
30	0x47a387e8	83727.81
31	0x4a53b86e	3.4688275e+06

graph_encoder.4.weight f4 [32, 32]
0	0x3ce50092	0.027954374
1	0xbd259800	-0.04042816
2	0xbe196036	-0.14978108
3	0xbd355377	-0.04426905
4	0x3d98ebf3	0.07466879
5	0xbd21eceb	-0.039532583
6	0x3dbd0ead	0.09231315
7	0x3bfbd895	0.0076857307
8	0xbe669747	-0.22518645
9	0x3d5e2134	0.054230884
10	0xbe3245ac	-0.1740939
11	0xbe138dff	-0.14409636
12	0xbd45e462	-0.048313506
13	0x3e007f98	0.12548673
14	0xbd665559	-0.056233738
15	0xbc4a6472	-0.01235305
16	0x3cbd4fab	0.023109278
17	0x3ddd234b	0.10797747
18	0xbe1bb60c	-0.15206164
19	0x3e52dc9d	0.2059197
20	0x3d866fc3	0.065642856
21	0x3cd4910d	0.025948072
22	0xbe34b4f5	-0.17647155
23	0xbd0ce281	-0.0343957
24	0xbd18d9ae	-0.03731697
25	0xbcefeaba	-0.029286731
26	0x3d2f36d9	0.042776916
27	0x3d91a019	0.07110614
28	0xbe0b12d5	-0.13581403
29	0xbc450876	-0.012025943
30	0x3d48ada0	0.048993707
31	0xbd7e40ec	-0.062073633
32	0xbdb43014	-0.08798233
33	0x3e4b02d8	0.19825304
34	0x3c878279	0.016541706
35	0x3db921cc	0.09039649
36	0xbddbb921	-0.1072867
37	0xbcb1f9c4	-0.021725543
38	0xbb4d5aba	-0.0031334595
39	0xbc214cb1	-0.009844945
40	0xbdd95a41	-0.10612918
41	0xbc838a5e	-0.01605719
42	0xbe3bcf00	-0.18340683
43	0xbd952436	-0.07282297
44	0x3d5e4716	0.05426701
45	0x3d798ac4	0.060923353
46	0xbd26e231	-0.040743057
47	0x3ce00f42	0.027351025
48	0x3a8fb4d6	0.0010963927
49	0x3c289c38	0.010291152
50	0xbd8c9ada	-0.06865473
51	0xbd566a21	-0.052347306
52	0x3d8f420d	0.0699502
53	0x3dde1b56	0.10845058
54	0xbe558d1b	-0.20854609
55	0xbc053521	-0.008130343
56	0xbcd30416	-0.025758784
57	0xbd1e142b	-0.038593452
58	0x3d839ce8	0.06426412
59	0xbd92e650	-0.07172835
60	0xbdfe93aa	-0.124305084
61	0x3e7c34d3	0.24629526
62	0x3e5d52ea	0.2161366
63	0xbe04120b	-0.12897508
64	0x3e0d5444	0.13801676
65	0xbd0fc8df	-0.035103675
66	0xbd8d34b8	-0.06894821
67	0xbc2f8d82	-0.01071489
68	0x3d288a5e	0.041147582
69	0x3c7a2747	0.0152681535
70	0x3e38b34a	0.18037143
71	0x3d86f204	0.065891296
72	0xbc3f6910	-0.011682764
73	0xbd465b68	-0.048427016
74	0x3dfa38aa	0.12217839
75	0x3e02fade	0.1279101
76	0xbde2439a	-0.1104805
77	0x3dc3f8e4	0.095689565
78	0xbdd5f711	-0.10447515
79	0x3dce76d3	0.10081258
80	0x3e35f21c	0.17768139
81	0xbe58cdad	-0.21172209
82	0x3e2a87f1	0.1665342
83	0xbdfb79a7	-0.12279063
84	0x3d8912a1	0.06693006
85	0x3e53f641	0.20699407
86	0x3ca603ff	0.020265577
87	0xbd3e83e6	-0.046512507
88	0xbcf8f2ce	-0.030389216
89	0x3dfee6c4	0.12446359
90	0x3c0f977e	0.008764146
91	0xbda9bc21	-0.08287836
92	0xbdf3d9bb	-0.11906763
93	0xbd9ca8f7	-0.07649415
94	0x3cd0416d	0.025421822
95	0x3d037fb3	0.032104205
96	0xbdb11151	-0.08645881
97	0x3e11d482	0.14241222
98	0x3e016f80	0.1264019
99	0x3d83eb8e	0.06441413
100	0xbc4c94a2	-0.012486609
101	0xbdbd50b4	-0.092439085
102	0xbcc54401	-0.024080278
103	0xbd8a2e58	-0.067471206
104	0x3d15a917	0.03653821
105	0x3da85fa2	0.082213655
106	0x3d927337	0.07150882
107	0xbe0775ed	-0.13228579
108	0x3cbc953c	0.02302038
109	0x3d995b86	0.0748816
110	0x3d2021fc	0.03909491
111	0xbdd73963	-0.105089925
112	0xbd957196	-0.072970554
113	0xbda9ab32	-0.08284606
114	0x3d893c56	0.06700961
115	0xbd9256c4	-0.071454555
116	0x3d995c6b	0.074883305
117	0x3e21981a	0.15780678
118	0xbd99884f	-0.07496702
119	0xbdf81d6e	-0.12114988
120	0xbcaf0696	-0.021365445
121	0x3e4bbf3a	0.19897166
122	0x3d24b9c9	0.04021624
123	0x3e4b0945	0.19827755
124	0x3d248ff1	0.040176336
125	0x3da38731	0.0798477
126	0xbc952b53	-0.018209135
127	0xbd4c486e	-0.04987376
128	0xbe63d41a	-0.22248879
129	0xbdc8ecce	-0.09810792
130	0xbbc3738e	-0.005964703
131	0xbd5c8ba6	-0.053844117
132	0x3d8eec4f	0.06978666
133	0xba95f38f	-0.0011440384
134	0xbd3ebf5c	-0.046569213
135	0xbd81f9b2	-0.06346454
136	0xbda6a536	-0.0813698
137	0x3da99d9b	0.08282014
138	0x3db9e81f	0.09077477
139	0xbcdf15c8	-0.027232066
140	0x3cc98616	0.02460007
141	0xbda5a547	-0.08088165
142	0x3ce4b174	0.027916647
143	0x3e3d8601	0.1850815
144	0x3dd82a2f	0.10554921
145	0xbe59c385	-0.21265991
146	0xbd83d8f2	-0.064378634
147	0x3d8e86dd	0.06959317
148	0xbd91d00f	-0.07119762
149	0xbe2f60ab	-0.1712672
150	0xbdf6860e	-0.12037288
151	0x3e20ea18	0.157143
152	0x3e679993	0.22617178
153	0xbad3a11d	-0.0016146038
154	0x3aa30932	0.0012438654
155	0xbd71915a	-0.05897651
156	0xbdf3f1bb	-0.11911341
157	0xbc3ececf	-0.011645987
158	0x3e0997bf	0.13436793
159	0xbdf7e237	-0.12103694
160	0xbd264b73	-0.040599298
161	0xbe240132	-0.16016081
162	0xbd36b8f9	-0.044609997
163	0x3e1c99d9	0.15293063
164	0x3e27813d	0.16357894
165	0xbd998404	-0.07495883
166	0x3d3752e7	0.044756796
167	0x3e215596	0.15755305
168	0xbda75cc5	-0.08171991
169	0xbdb30f9c	-0.087432116
170	0xbd6e56d6	-0.058188282
171	0xbe04f294	-0.12983161
172	0x3d90caa2	0.07069899
173	0x3de1131c	0.10989973
174	0xbd0d427b	-0.03448723
175	0x3e12f5e7	0.14351617
176	0x3db87b82	0.09007932
177	0xbe6239c1	-0.22092344
178	0xbcf5da11	-0.030011209
179	0x3de0fcce	0.10985719
180	0x3e1c9d8a	0.15294471
181	0x3c16a343	0.009194198
182	0xbe14e614	-0.14540893
183	0xbe0c2847	-0.1368724
184	0x3b8b2cde	0.004247292
185	0xbb75b59b	-0.0037492278
186	0x3df3915a	0.11892958
187	0x3e30b8bf	0.17257975
188	0xbdabe6ad	-0.08393607
189	0xbdbcbb58	-0.092154205
190	0xbd1cbccc	-0.03826599
191	0x3c14939b	0.009068395
192	0xbd38369e	-0.044973962
193	0xbe11728a	-0.1420385
194	0x3cc2ba8d	0.023770595
195	0xbdefab8f	-0.11702644
196	0xbd99eb5e	-0.07515596
197	0x3d81e1ed	0.0634192
198	0x3e05fd8b	0.13085
199	0x3da1fd94	0.07909694
200	0xbe1fa2c9	-0.15589441
201	0xbe5d051a	-0.21583977
202	0xbdd663b4	-0.104682356
203	0xbe00ac31	-0.12565686
204	0xbd9e48d7	-0.07728737
205	0x3d9a4783	0.07533171
206	0x3d95ff4c	0.07324085
207	0x3d527770	0.051383436
208	0xbd02c1ec	-0.03192322
209	0xbd559028	-0.05213943
210	0x3dd7b1d6	0.105319664
211	0x3d1ade41	0.037809614
212	0x3e38dc34	0.18052751
213	0xbe36d0f7	-0.17853151
214	0xbdd445bc	-0.10364863
215	0x3ce55bec	0.027997933
216	0x3dddaef6	0.10824387
217	0xbe361aa1	-0.17783596
218	0x3dc5b773	0.09654131
219	0xbdb72c31	-0.08943976
220	0xbe0efe63	-0.13964228
221	0xbd4d92a6	-0.050188683
222	0xbd3b504f	-0.045730885
223	0xbda1e648	-0.07905251
224	0xbd183cd4	-0.037167385
225	0xbd017c6b	-0.031612795
226	0xbe14885b	-0.1450514
227	0xbd84f1a4	-0.06491402
228	0xbddeb59a	-0.108744815
229	0x3e30cea8	0.17266333
230	0xbd967eb0	-0.073483825
231	0xbd858e78	-0.065213144
232	0xbd4fa854	-0.05069764
233	0xbd950ee1	-0.072782286
234	0xbd31a7b7	-0.043372836
235	0xbdd41261	-0.10355068
236	0x3e0360a4	0.12829834
237	0x3d41d73c	0.047324404
238	0xbdd61e61	-0.10455013
239	0xbd4597ec	-0.048240587
240	0x3d23c86a	0.03998605
241	0xbd003478	-0.031300038
242	0xbe0ebdcb	-0.13939588
243	0xbdaf7ef6	-0.08569138
244	0x3d857b48	0.06517655
245	0x3e51dc2b	0.20494144
246	0xbe17595b	-0.1478018
247	0xbce1e370	-0.027574271
248	0xbda7c2d5	-0.08191458
249	0xbbb83ff3	-0.0056228577
250	0xbd8363c0	-0.0641551
251	0x3dc8ef57	0.098112755
252	0x3d8a4a95	0.06752507
253	0xbe4753f2	-0.19465616
254	0x3db88d00	0.090112686
255	0xbe284b10	-0.16434884

graph_encoder.4.bias f4 [32]
0	0xbdbfe688	-0.09370142
1	0xbcccd16e	-0.025002208
2	0x3e243597	0.16036068
3	0x3e16c6fc	0.14724344
4	0x3e0203a7	0.12696706
5	0x3d84d7c5	0.06486467
6	0x3d9fd669	0.07804567
7	0xbe0d702a	-0.13812318
8	0xbd661445	-0.056171674
9	0x3d37cccc	0.044873044
10	0x3e26e85f	0.1629958
11	0xbd07a318	-0.033114523
12	0x3d9443c4	0.07239488
13	0xbc0fe3bf	-0.008782326
14	0xbe2992d0	-0.16559911
15	0xbdeff235	-0.11716119
16	0xbd2580dc	-0.040406093
17	0xbe18ec70	-0.14933944
18	0xbd76d0d4	-0.060257748
19	0x3e1c00ee	0.1523473
20	0x3e139701	0.14413072
21	0x3dafedb2	0.08590259
22	0x3c9af2ca	0.018914599
23	0xbde387ac	-0.11109862
24	0x3e2ce18c	0.16882914
25	0x3dbcecdf	0.09224867
26	0xbd747cb7	-0.05968925
27	0x3d846b65	0.064657964
28	0xbe17aeca	-0.1481277
29	0xbdd040c0	-0.101686
30	0x3d141d76	0.03616091
31	0x3d566280	0.05234003

graph_encoder.5.weight f4 [32]
0	0x3f8b5b50	1.0887241
1	0x3f839f19	1.0282928
2	0x3f840306	1.0313423
3	0x3f6f055c	0.9336755
4	0x3f871ffb	1.0556635
5	0x3f80f85d	1.0075794
6	0x3f86f4dc	1.0543475
7	0x3f858265	1.0430418
8	0x3f6fcd3e	0.9367255
9	0x3f8537d5	1.0407664
10	0x3f77d605	0.9681094
11	0x3f8c7d1b	1.0975679
12	0x3f7c9d8a	0.98677886
13	0x3f83c45e	1.0294302
14	0x3f83ce1f	1.0297278
15	0x3f878899	1.0588561
16	0x3f840134	1.0312867
17	0x3f8bfb95	1.0936152
18	0x3f83cb1b	1.0296358
19	0x3f966863	1.1750606
20	0x3f749a9c	0.95548415
21	0x3f875749	1.0573512
22	0x3f8cfdf3	1.1014999
23	0x3f80d072	1.0063612
24	0x3f7969d5	0.9742711
25	0x3f8bb530	1.0914669
26	0x3f810a0d	1.0081192
27	0x3f8ccdd8	1.1000319
28	0x3f80ceab	1.006307
29	0x3f7f9762	0.99840367
30	0x3f6fb06c	0.93628573
31	0x3f74686b	0.9547183

graph_encoder.5.bias f4 [32]
0	0x3e32a4dd	0.17445703
1	0x3e572784	0.21011168
2	0x3e82bd08	0.25534844
3	0xbd1f93eb	-0.038959425
4	0x3e2ed495	0.17073281
5	0x3de68685	0.11256126
6	0x3e11d880	0.14242744
7	0x3e3a72b3	0.18207817
8	0x3d805391	0.06265939
9	0x3dc89030	0.097931266
10	0x3d5e7cc5	0.05431821
11	0x3e3c7f54	0.18407947
12	0x3c00f6e6	0.007871365
13	0x3e5c74bb	0.21528904
14	0x3e36b6a2	0.17843106
15	0x3e60cd4b	0.21953313
16	0x3d9614ea	0.07328208
17	0x3e31d3ad	0.17365904
18	0x3df8adbc	0.12142512
19	0x3e83023a	0.25587636
20	0x3ca8bbd2	0.020597372
21	0x3e22fa49	0.15915789
22	0x3dd8d2c1	0.10587073
23	0x3e01d367	0.126783
24	0x3da954fb	0.08268162
25	0x3dcbd724	0.09953144
26	0x3e69e4fd	0.22841258
27	0x3d9f6543	0.07782986
28	0x3dff40a6	0.124635026
29	0x3e212a5d	0.15738817
30	0xbc58b4b1	-0.013226674
31	0xbd52345b	-0.05131946

graph_encoder.5.running_mean f4 [32]
0	0xbe78736f	-0.24262784
1	0xbd454a2c	-0.04816644
2	0x3ed37935	0.4130341
3	0x3ea8bd17	0.32956764
4	0xbcbe7d00	-0.023252964
5	0x3dbfe494	0.0936977
6	0xbe8e22cf	-0.27760932
7	0xbf05472a	-0.5206171
8	0xbd44868b	-0.047979873
9	0xbcce78fe	-0.025204178
10	0x3bc75355	0.006082932
11	0xbdcde0d7	-0.100526504
12	0xbdfbb272	-0.12289895
13	0xbd0fe7d4	-0.035133198
14	0xbeadf277	-0.33974048
15	0xbe7e9aef	-0.2486379
16	0xbe59609c	-0.2122826
17	0xbece9044	-0.4034444
18	0x3d0a8d71	0.033826295
19	0x3d93a92e	0.07210003
20	0xbe32be92	-0.1745551
21	0xbcdb368c	-0.026759408
22	0xbcf82023	-0.030288761
23	0xbdcb424f	-0.09924757
24	0x3b80d8cf	0.0039320956
25	0xbe071a81	-0.13193704
26	0xbc18ab36	-0.009318164
27	0xbe898730	-0.26860952
28	0xbe39880b	-0.18118303
29	0xbe94917f	-0.29017255
30	0x3e6156e9	0.2200581
31	0xbcde019b	-0.027100375

graph_encoder.5.running_var f4 [32]
0	0x3eb47099	0.35242155
1	0x3e8af94c	0.27143323
2	0x3e739b36	0.23789677
3	0x3e2ada09	0.16684736
4	0x3ebba83f	0.366518
5	0x3f501560	0.81282616
6	0x3ecaee19	0.3963478
7	0x3e62328b	0.22089593
8	0x3e2ac508	0.16676724
9	0x3ec5d083	0.38635644
10	0x3e8653fc	0.2623595
11	0x3f22640f	0.6343393
12	0x3e2ffde0	0.1718669
13	0x3e9f1644	0.31071675
14	0x3e5fa8eb	0.21841781
15	0x3ea79c0e	0.32736248
16	0x3ea9be9c	0.33153236
17	0x3e31ef07	0.17376338
18	0x3f585462	0.8450376
19	0x3f36ac68	0.7135682
20	0x3e2fd44c	0.17170829
21	0x3ebc1ad6	0.36739224
22	0x3f19cf72	0.6008216
23	0x3f06ab27	0.5260491
24	0x3ea09fed	0.31372014
25	0x3efaa9a6	0.48957556
26	0x3e77596e	0.24155208
27	0x3f03d570	0.51497555
28	0x3e19761d	0.14986463
29	0x3eb6f2fb	0.35732254
30	0x3e64f2f1	0.223583
31	0x3db52334	0.08844605

fusion.0.weight f4 [32, 64]
0	0x3c098540	0.008393586
1	0xbd850247	-0.06494575
2	0xbc0f331c	-0.008740213
3	0xbd573e6a	-0.052549757
4	0x3d8a8c5f	0.06765055
5	0xbdd7e1b3	-0.105410956
6	0xbcc88efc	-0.024482243
7	0x3de6d631	0.112713225
8	0x3bfdfb4e	0.007750905
9	0x3d8cd908	0.06877333
10	0xbd893617	-0.0669977
11	0x3e157b73	0.14597873
12	0x3d566393	0.052341055
13	0xbdb64976	-0.0890073
14	0xbcd97431	-0.026544662
15	0xbdc6ce5c	-0.09707329
16	0xbd9310ca	-0.07180937
17	0xbd3670b9	-0.044541094
18	0x3b84bb65	0.0040506595
19	0x3d8f5873	0.06999292
20	0x3da8d4d6	0.0824372
21	0x3c82ae3e	0.015952226
22	0xbd7b6c11	-0.061382357
23	0x3da683a2	0.08130576
24	0x3cbb63bd	0.022874707
25	0xbdccdd89	-0.10003192
26	0xbd203eaa	-0.03912226
27	0xbced2abf	-0.028951047
28	0x3d9b4586	0.0758162
29	0x3d3cd001	0.046096805
30	0x3d6f1808	0.058372527
31	0xbe24bb7d	-0.16087146
32	0x3d9c2aaa	0.07625325
33	0x3e1fac5d	0.15593095
34	0xbda947ba	-0.08265634
35	0xbd867ed8	-0.06567162
36	0x3df5a5d9	0.119945236
37	0xbd40f6b3	-0.04711027
38	0x3bdf1a7a	0.006808576
39	0x3d245e47	0.040128972
40	0x3dddfb8f	0.108389966
41	0xbd414422	-0.047184117
42	0xb9a8aad3	-0.0003217073
43	0xbb19a327	-0.0023443194
44	0x3d27d1cb	0.04097156
45	0x3e1ebe44	0.15502268
46	0x3d7c8c35	0.06165715
47	0x3e3c7dce	0.18407366
48	0x3ce86683	0.028369194
49	0xbd636a86	-0.05552151
50	0x3dc408d6	0.09571998
51	0x3d864224	0.06555584
52	0x3d845f46	0.064634845
53	0xbe33b316	-0.17548785
54	0xbe3d109e	-0.1846337
55	0xbd6afdf4	-0.057371095
56	0x3deba40e	0.115059
57	0x3d4c51c3	0.04988266
58	0x3beede4d	0.007289684
59	0xbd17bbb1	-0.03704423
60	0xbdc07d27	-0.09398871
61	0x3dd8a153	0.10577645
62	0x3d52eb16	0.051493727
63	0x3e0fb2be	0.14033028
64	0xbbc2ab1c	-0.005940808
65	0x3d2d10fb	0.042252522
66	0x3dae0362	0.08496739
67	0xbd59f85c	-0.05321537
68	0xbcac1636	-0.021006685
69	0x3e28714b	0.16449468
70	0x3d03c542	0.03217054
71	0x3d767864	0.060173407
72	0xbb942261	-0.0045207
73	0xbe05c0e7	-0.13061868
74	0x3c8dd72a	0.017314512
75	0xbd760430	-0.060062587
76	0x3d48e74f	0.049048718
77	0x3df421a0	0.11920476
78	0x3c8687ed	0.016422236
79	0x3cc76e3f	0.024344562
80	0xbcacafa7	-0.021079851
81	0xbcb88ae3	-0.022527164
82	0xbe152799	-0.14565887
83	0x3ccebcd5	0.025236527
84	0xbd89f973	-0.06737032
85	0xbdaab997	-0.0833618
86	0x3d075e97	0.033049192
87	0xbc8d2f16	-0.017234366
88	0x3ae9fb4c	0.0017851382
89	0xbc0c9745	-0.008580987
90	0xbd8bd284	-0.06827262
91	0xbd561979	-0.052270386
92	0xbdb16511	-0.08661855
93	0x3dc07166	0.09396629
94	0x3d5246e3	0.051337134
95	0x3d4a9e2a	0.049467243
96	0xbb4b37d5	-0.003100862
97	0x3d27fa78	0.04101035
98	0x3bfd2f49	0.007726584
99	0x3d6330c3	0.055466425
100	0xbe55fdcf	-0.20897602
101	0xbdae88e1	-0.08522201
102	0xbca238fc	-0.019802563
103	0xbd84f06c	-0.06491169
104	0x3d94f50d	0.07273302
105	0x3dbeef05	0.09322933
106	0xbcf34d81	-0.029700043
107	0x3d9ba157	0.075991325
108	0xbdacab67	-0.0843113
109	0xbc2f9842	-0.010717453
110	0xbdb88a1c	-0.09010717
111	0x3da988d0	0.08278048
112	0xbd3783ef	-0.044803556
113	0xbc5a9101	-0.013340236
114	0x3d7b6fdb	0.06138597
115	0x3b12bd14	0.0022390531
116	0xbc42ec4e	-0.01189716
117	0xbdf1b130	-0.11801374
118	0x3c4d8bbc	0.012545522
119	0x3dd17673	0.102276705
120	0x3cb2315a	0.021752048
121	0x3d9c8d4f	0.0764414
122	0xbe24fc98	-0.16111982
123	0x3de23faa	0.11047299
124	0x3d5606ec	0.052252695
125	0x3d39bf81	0.045348648
126	0xbdf563b1	-0.11981905
127	0x3d727527	0.059193756
128	0xbd924bfe	-0.071434006
129	0x3d53649c	0.05160962
130	0x3cde838b	0.027162334
131	0x3e09df85	0.13464172
132	0x3d653abb	0.055964213
133	0xbc5b53ff	-0.013386725
134	0xbb95bd2b	-0.0045696697
135	0x3d691098	0.05690059
136	0xbd65d5c0	-0.05611205
137	0x3ad3cfc0	0.0016159937
138	0x3d47bda2	0.048764832
139	0xbd3d19ac	-0.04616706
140	0xbc8eacea	-0.017416436
141	0xbd608558	-0.054814667
142	0xbd986810	-0.07441723
143	0x3d2c064d	0.041998196
144	0x3d8afef6	0.06786911
145	0xbcce336b	-0.025171002
146	0xbcf39f49	-0.029739039
147	0x3d4b0d2d	0.049573112
148	0xbd8b8c0a	-0.0681382
149	0xbcbb5dab	-0.022871813
150	0x3d057e78	0.032591313
151	0x3df18b6c	0.11794171
152	0x3c829d8e	0.015944269
153	0xbd9f1608	-0.07767874
154	0xbd82b856	-0.063828155
155	0xbcbdb849	-0.023159163
156	0xbd446002	-0.047943123
157	0x3d7266b8	0.05917999
158	0xbcee4219	-0.029084252
159	0x3dbf3c00	0.09337616
160	0xbd83c91d	-0.06434844
161	0xbdb5c2c8	-0.08875042
162	0x3c7c1779	0.015386456
163	0xbd8d5260	-0.069004774
164	0xbdd06e3c	-0.101772755
165	0x3d120f80	0.035659313
166	0xbdb73450	-0.08945525
167	0xbe3638b6	-0.17795071
168	0xbda4b718	-0.08042735
169	0x3e2f0eb7	0.17095457
170	0xbdbe4484	-0.09290412
171	0x3d954422	0.07288386
172	0xbc04109a	-0.008060599
173	0x3dad864f	0.08472883
174	0xbd9ebf53	-0.07751336
175	0xbc01627f	-0.007897018
176	0xbd732930	-0.05936545
177	0x3d3857b1	0.045005504
178	0xbda49cf6	-0.080377504
179	0xbd177cd5	-0.036984283
180	0xbd066783	-0.03281356
181	0x3d449fed	0.04800408
182	0x3c751c5b	0.014960374
183	0xbd624c50	-0.05524856
184	0x3d14fbc6	0.036372922
185	0x3db6c9f0	0.08925235
186	0xbdba9707	-0.091108374
187	0x3d9d9283	0.076939605
188	0x3d95d87d	0.073166825
189	0xbd335b5e	-0.043788306
190	0x3d310a59	0.04322276
191	0x3d29d822	0.041465886
192	0x3da126ce	0.078687295
193	0x3db8beea	0.09020789
194	0xbdb22fa9	-0.08700497
195	0x3d8e0894	0.0693523
196	0xbd25128b	-0.040300887
197	0x3d30c3cf	0.043155488
198	0x3d98021b	0.074222766
199	0x3dd2c6a7	0.10291796
200	0xbdaf10af	-0.08548104
201	0xbcb3d1a8	-0.021950558
202	0xbdebb77d	-0.11509607
203	0x3d981643	0.07426121
204	0xbdb35ce6	-0.08757953
205	0x3c757bca	0.014983127
206	0x3dfcca42	0.12343265
207	0x3d969aa9	0.07353718
208	0x3d1e4648	0.038641244
209	0x3cd2f75e	0.02575272
210	0xbd6aa5e3	-0.05728711
211	0x3c6485d4	0.013947923
212	0x3d24bb3d	0.040217627
213	0x3caf3c55	0.021391073
214	0xbbf5356c	-0.007483175
215	0xb8a8f6d8	-8.0568425e-05
216	0x3cd8ba9d	0.026456172
217	0xbd8ae25e	-0.06781457
218	0xbd6798f9	-0.05654237
219	0xbccff22b	-0.02538403
220	0x3dded0f9	0.10879702
221	0x3d3a3593	0.04546125
222	0x3b1789d6	0.0023122928
223	0x3da22f51	0.07919181
224	0xbd5019da	-0.050805904
225	0xbda6ec4e	-0.0815054
226	0x3dc4cc3f	0.09609269
227	0xbd82ad36	-0.063806936
228	0x3d6ca8ed	0.057778288
229	0xbdc4bfe0	-0.0960691
230	0xbd751324	-0.059832707
231	0xbd5dd48b	-0.054157775
232	0x3dd5d7e6	0.1044157
233	0xbe088ce2	-0.13334993
234	0x3d168ac4	0.03675343
235	0xbd69540c	-0.05696492
236	0x3d92de15	0.07171265
237	0xbe1d61e5	-0.15369375
238	0xbcdac719	-0.026706265
239	0xbde505f5	-0.11182777
240	0xbd4943eb	-0.049137037
241	0x3d1b97e6	0.03798666
242	0x3d13ab14	0.036051825
243	0x3e4d6c92	0.20060948
244	0x3d931fc0	0.0718379
245	0x3e0ebf1d	0.13940091
246	0x3d484b27	0.048899796
247	0xbe023108	-0.12714016
248	0xbdcb026a	-0.0991257
249	0x3d9406e5	0.072278775
250	0x3cbab4a0	0.022791207
251	0xbba4d318	-0.005030047
252	0xbce7a8cf	-0.028278736
253	0xbd8dd472	-0.06925286
254	0x3c1b1769	0.009466031
255	0x3bb7bd91	0.005607315

fusion.0.bias f4 [32]
0	0xbde94454	-0.11389986
1	0x3d86377f	0.06553554
2	0xbd39ee77	-0.045393433
3	0xbd423cb3	-0.04742117
4	0xbb87fea7	-0.00415023
5	0x3dab24aa	0.083566025
6	0xbcae362f	-0.021266071
7	0x3d26c201	0.04071236
8	0xbdae9818	-0.08525103
9	0x3dd95e25	0.1061366
10	0x3d7775d7	0.060415115
11	0x3dc903aa	0.09815152
12	0xbd19cc59	-0.037548397
13	0x3dc60112	0.09668173
14	0xbdc0e966	-0.09419517
15	0x3d54a6c3	0.05191685
16	0xbd7b0261	-0.061281566
17	0xbdb8de6a	-0.09026797
18	0x3cc05062	0.02347583
19	0x3db20be9	0.08693678
20	0x3da0f2cf	0.07858812
21	0x3dee3ed4	0.11633077
22	0xbda18569	-0.07886774
23	0xbd2acb8f	-0.041698035
24	0x3c07567a	0.008260364
25	0x3d0e5306	0.034747146
26	0x3b448fd1	0.0029992948
27	0xbd3c4eae	-0.045973472
28	0x3c3bb175	0.011455883
29	0xbdea10fb	-0.1142902
30	0xbddb7ba5	-0.10716943
31	0xbde64d23	-0.112451814
