models/lstm_gru_best.pth (torch, 94911 bytes, 76 tensors)

temporal_encoder.0.weight f4 [32, 7]
000000 4d 31 8c bd 35 08 88 3e 50 6d cb 3d 47 1d 89 be
       -0.06845341 0.2656876 0.09932959 -0.2678015
000010 47 21 9a be 9f a8 6f be b9 cf b4 3e 70 50 e6 3e
       -0.30103514 -0.23404168 0.3531473 0.44983244
000020 eb d2 e4 3e 11 56 93 bd 0d 49 9e 3e d0 a6 7d 3e
       0.44692168 -0.0719415 0.30915108 0.24770665
000030 1e 2d 1c 3e 89 6f 0f 3e 02 0c 2d 3d ab 04 a6 bd
       0.15251586 0.14007391 0.04224778 -0.08106359
000040 bf 89 b7 bd 45 37 74 be 7b c0 d8 be e4 43 77 be
       -0.0896182 -0.23849209 -0.4233435 -0.24146992
000050 6a bf 9d be ef 82 a9 3e 86 a7 b8 3e 33 40 29 3e
       -0.308101 0.33107707 0.3606531 0.16528396
000060 ce 14 dd 3e 60 0a 6a be 65 52 64 3e 7c 95 6a be
       0.43179935 -0.2285552 0.22297056 -0.22908586
000070 5a 51 b3 be 9d 63 c2 be f4 e6 d7 be 68 a8 c4 3d
       -0.35023004 -0.37966624 -0.4216839 0.096024334
000080 29 82 50 3e 41 9b 36 be 67 e2 09 3c 6c 31 3e be
       0.20362152 -0.17832662 0.008415795 -0.1857354
000090 87 86 b4 be 8d 00 c3 be 7b 0e 07 3e e9 54 21 be
       -0.35258886 -0.38086358 0.13189118 -0.15755047
0000a0 65 62 a5 be 45 34 b6 3e e3 3b 91 3e 59 78 6c bd
       -0.32301632 0.35586753 0.28366002 -0.05773196
0000b0 42 c4 a4 3e ee d6 8f bd 5a 9d f4 be bf 12 a7 3e
       0.32180983 -0.070234165 -0.477763 0.3263149
0000c0 81 3d c2 be b0 61 de 3d d6 5a 35 b8 6b 42 7a 3e
       -0.3793755 0.10858476 -4.323836e-05 0.24439399
0000d0 cf 44 94 3e 3b 2b b7 be 44 40 65 be 2b 29 df bb
       0.28958747 -0.3577517 -0.22387797 -0.0068103275
0000e0 7c 03 d5 3e dc 7b 0f 3e 48 93 12 be f5 ab f9 3d
       0.4160422 0.14012092 -0.14313996 0.12191001
0000f0 b0 dc cf 3e 0f c9 15 be fe 7b 71 3e 11 72 f8 3e
       0.4059806 -0.14627479 0.23582456 0.48524526
000100 ec d3 d2 be d3 44 17 be 8d 9d 4b 3e 24 76 85 3e
       -0.4117731 -0.14772348 0.1988432 0.26066697
000110 ce 61 40 3d 9a eb 09 3e 69 4b f0 3d bf ce da bd
       0.046968274 0.13468781 0.11733133 -0.10683965
000120 60 ce 26 be d3 4f 83 be 79 87 15 3e 3c 3f a2 bd
       -0.16289663 -0.2564684 0.1460246 -0.07922217
000130 16 e8 91 be a0 9b 2c 3e 75 57 b2 be c1 b6 4b 3e
       -0.2849738 0.16856241 -0.3483235 0.19893934
000140 ea 05 8a 3d 83 05 b4 3e dd 37 e0 3b a6 e0 13 bd
       0.06739409 0.35160455 0.006842597 -0.036102913
000150 e1 77 29 3d 5b 7d 03 3d 19 9b 4c 3e 34 33 9a 3e
       0.04137409 0.03210197 0.1998104 0.3011719
000160 49 c0 a3 bd ca 32 7a 3b e1 95 77 3e 0f cf 0c be
       -0.0799566 0.0038177245 0.24178268 -0.13750862
000170 64 3a 7b 3e 6f 28 75 3e 8a 1b 52 3d b5 37 55 3e
       0.24533993 0.23941205 0.051295795 0.20822032
000180 8a d7 d5 3e 79 cf 22 be 6a 18 e1 3e b0 6f 66 3e
       0.41766006 -0.15899457 0.4396394 0.22503543
000190 46 42 30 bc 58 61 97 3e 24 2a ea 3e 76 ee 93 3d
       -0.010757988 0.29566455 0.45735276 0.07223217
0001a0 b9 a1 da 3d 7d ee 46 3e dc 47 4d 3d 77 38 54 3d
       0.106753774 0.19426914 0.05011736 0.05181166
0001b0 17 e8 95 be a2 23 bc be a5 e1 35 3e cb 5e 69 3e
       -0.29278633 -0.36745936 0.17761858 0.22790067
0001c0 d0 74 83 be 8c 7f 6b 3e 85 16 bf 3e dd c8 10 be
       -0.25675058 0.22997874 0.3732187 -0.14139123
0001d0 c3 60 74 3e a4 8d 28 be e9 03 a8 3e 81 84 89 3e
       0.23865037 -0.16460282 0.32815483 0.26858905
0001e0 fc 9d ab 3e 3d fc 3d 3d de 30 b9 be 90 7e 97 3c
       0.3351897 0.04638313 -0.36170095 0.018492967
0001f0 f5 9b 4e 3e 19 fb 28 3e e0 f3 cf bd 12 99 11 3e
       0.2017668 0.16502036 -0.10153937 0.14218548
000200 22 ce ee be 5e 6d 0e 3a 6d bd 77 be b5 0a 6a 3e
       -0.46641642 0.0005433167 -0.24193354 0.22855647
000210 eb 64 62 be 57 85 88 bd e2 88 6d be 05 0f 43 be
       -0.2210881 -0.066660576 -0.23196748 -0.19048698
000220 35 be 49 3e 3e e1 93 3e 11 dc 12 ba ae 7c 03 bb
       0.19701464 0.28882784 -0.00056022505 -0.0020063329
000230 96 30 cd be 6d 58 a7 be 79 76 80 be eb ed 33 3e
       -0.4007613 -0.3268465 -0.25090387 0.17571227
000240 b9 23 d4 be af 6f e1 bc 6b 80 68 bd cc 54 bc be
       -0.41433504 -0.027519075 -0.056763094 -0.36783445
000250 05 24 58 be 24 69 40 3e 32 3b c2 3e e2 a6 ba 3e
       -0.2110749 0.18790108 0.37935787 0.36455446
000260 70 5b 0b bd e4 60 70 bd 1e 2b b4 3e bf cd 14 3e
       -0.03402275 -0.058686152 0.35189146 0.14531611
000270 14 dc 85 3e ce 59 8e 3d f0 1e 83 3e ed 27 0a bd
       0.2614447 0.06950723 0.2560954 -0.033729482
000280 81 50 16 bd 2e 23 74 3e 65 4a ab 3d c8 e3 c5 be
       -0.03669787 0.23841545 0.08363799 -0.38650346
000290 83 ad b3 be 7f 3f b3 be 10 df 22 be 1a 4f 70 3e
       -0.35093316 -0.3500938 -0.15905404 0.23467675
0002a0 e2 76 a2 3e 69 4b 54 3e cf aa 8c bd 98 b6 bc bd
       0.31731325 0.20731892 -0.06868517 -0.092145145
0002b0 28 7c 48 3e c4 43 3f 3c cd bf 19 bd fc 71 fa be
       0.19578612 0.011673871 -0.03753643 -0.48915088
0002c0 42 be f4 3d 59 b8 65 3e 28 fe a1 be f2 52 00 bd
       0.11950351 0.22433604 -0.31639218 -0.031329103
0002d0 c0 9e 2c 3e 9d c0 a6 be ad ec 90 be a2 07 d8 be
       0.16857433 -0.32568827 -0.2830557 -0.42193323
0002e0 3f da 8e 3d 10 f6 83 3d fa da 61 3e 62 d9 17 ba
       0.06975221 0.06443417 0.22056189 -0.00057925854
0002f0 db 39 c2 3c 34 a3 2f be 4c 0b 8f be 91 e9 a5 3e
       0.023709228 -0.17152101 -0.27938306 0.3240476
000300 3b ea 0a 3e f0 08 99 be 8f cb a0 ba 14 63 91 3c
       0.13565914 -0.2988963 -0.0012267696 0.01774744
000310 63 ad c4 be 6e c2 ca 3d 83 1a a3 bd eb 76 b1 3d
       -0.38413534 0.09900366 -0.07964041 0.0866526
000320 08 4e 91 3e ca be 1d 3e 85 b8 a8 3e 95 ef 02 be
       0.28379846 0.15404812 0.32953277 -0.12786706
000330 be 38 fa 39 05 60 22 bd 13 83 7a 3e 82 87 3b be
       0.00047725992 -0.039642353 0.24464063 -0.18313411
000340 a0 6e c3 be eb f4 99 3d 45 70 24 be 08 21 88 be
       -0.38170338 0.075174175 -0.16058452 -0.265877
000350 b8 03 28 be 20 08 c8 3d 51 ba b5 be 0f a8 78 3e
       -0.16407669 0.09767175 -0.3549371 0.2428286
000360 ef df f3 bd 04 be bd bd 63 73 71 3e dc 07 b8 3e
       -0.11907946 -0.09264758 0.23579173 0.35943496
000370 87 02 b2 3e 41 25 ac be a5 fa 9b 3e 1b 7f e6 3d
       0.34767553 -0.33622172 0.30464664 0.11254712

temporal_encoder.0.bias f4 [32]
000000 96 06 9b be f2 e4 8e 3e 14 77 6f be 7e 66 49 3d
       -0.30278462 0.27909046 -0.23385268 0.04917001
000010 50 38 6d be af dc 8b be 75 e0 ba 3e 31 08 8a be
       -0.23166013 -0.27316806 0.36499372 -0.26959375
000020 98 23 96 3d 2f 01 7a 3e 93 32 c3 bc 55 b5 75 3e
       0.07331008 0.24414514 -0.023827827 0.23994954
000030 64 75 04 ba b3 26 9b 3e e8 2a 9c bc d0 5a a6 3e
       -0.0005052893 0.30302963 -0.019063428 0.3249116
000040 99 02 98 be 85 53 56 bc 6c 09 3a be 5d 44 97 be
       -0.29689482 -0.013081436 -0.18167657 -0.29544345
000050 36 87 07 3e 28 61 3d 3e de 7a b2 3e 28 d6 6b 3e
       0.13235173 0.18494093 0.34859365 0.23030913
000060 e6 71 32 be 1b 32 b0 bd bc 36 ae 3e 10 09 b4 3e
       -0.17426261 -0.08603307 0.34026134 0.35163164
000070 63 0c b0 be 17 9e cb 3d 62 1b e1 3d 22 d7 45 be
       -0.3438445 0.099422626 0.10991551 -0.19320348

temporal_encoder.1.weight f4 [32]
000000 e9 ec 72 3f 8b ec 6b 3f 39 0d 75 3f a7 6a 73 3f
       0.94892746 0.9215781 0.957233 0.95084614
000010 32 7f 77 3f a2 d5 6f 3f 8f e9 7c 3f 2b e9 68 3f
       0.9667846 0.9368535 0.9879388 0.90980786
000020 b1 bc 79 3f de 8d 79 3f cf 5f 6d 3f da 31 8a 3f
       0.97553545 0.974821 0.9272432 1.0796463
000030 f7 52 80 3f d0 30 6a 3f ce f6 84 3f a1 a7 74 3f
       1.0025319 0.9148073 1.0387819 0.9556828
000040 e3 88 79 3f fc 65 73 3f 18 5e 77 3f 70 4c 87 3f
       0.974745 0.9507749 0.9662795 1.0570202
000050 ae d5 7a 3f 0f 8e 79 3f 34 17 7f 3f dc be 6a 3f
       0.979823 0.9748239 0.9964478 0.9169748
000060 04 5b 85 3f 59 ac 6d 3f 40 29 92 3f 74 43 9a 3f
       1.0418401 0.92841107 1.1418839 1.2051835
000070 9e 80 75 3f 02 57 6d 3f 0f 1c 71 3f 8f 7c 70 3f
       0.9589938 0.9271089 0.9418344 0.9394006

temporal_encoder.1.bias f4 [32]
000000 4f 9e 7d bd 4e 2a 76 bd b3 53 99 bd 9c fc ef bc
       -0.061918553 -0.06009894 -0.074866675 -0.029295258
000010 80 97 35 bd 1d f7 29 bd df 16 33 bc 8b 80 9e bd
       -0.044333935 -0.04149543 -0.010930746 -0.077393614
000020 2b c0 30 bd 27 2a 96 bc e2 51 82 bd ed 8a db 3d
       -0.043152016 -0.018330647 -0.06363274 0.10719857
000030 a8 d1 35 3c 04 1b ab bd ae 65 d7 bc 96 ea 03 bd
       0.011097349 -0.08354762 -0.026293602 -0.03220614
000040 59 eb 0c bc fe 39 f4 bc e3 df 16 bd 21 5c 3f 3e
       -0.008601033 -0.02981281 -0.03683461 0.18687488
000050 13 9b 86 bd 85 b8 04 bd 30 80 06 bd cd e5 b2 bd
       -0.06572547 -0.032402534 -0.032837093 -0.08735237
000060 95 57 27 3a d1 9d 59 bd 86 62 9e 3d f3 0a 9b 3d
       0.0006383595 -0.05312902 0.077336356 0.07570448
000070 e5 ff 27 bd 26 96 3f bd 27 23 83 bd 3d 1b 1d bd
       -0.041015524 -0.046774052 -0.06403189 -0.038356055

temporal_encoder.1.running_mean f4 [32]
000000 28 78 a4 c0 99 66 3b 40 aa 92 8a c0 7a 37 91 40
       -5.1396675 2.928137 -4.3304033 4.538022
000010 cc 5a 64 c0 64 ec d8 c0 6e c9 e0 40 80 a5 8e c0
       -3.5680418 -6.7788563 7.0245886 -4.4577026
000020 06 f9 43 c0 67 d4 6d 3f 3d c1 92 bf 92 de c7 3e
       -3.0620742 0.92902225 -1.1465222 0.39036995
000030 2f a3 72 be 56 7e 05 41 e8 4c 8f 3f a0 b9 59 40
       -0.23695062 8.343344 1.1195345 3.4019547
000040 2e d6 75 c0 4d 0b 62 40 da 59 8d 40 4e 75 a5 be
       -3.8411975 3.5319397 4.417218 -0.3231606
000050 c1 cd 6d be 8e 1c d8 be ae f4 92 be 78 75 42 c0
       -0.2322302 -0.42209285 -0.287023 -3.0384197
000060 a4 32 6f 3d 10 ce 61 40 25 20 9e 3e fb 26 ba 3e
       0.058397904 3.528202 0.308839 0.36357865
000070 fc 2e 07 40 7c fa e4 c0 68 01 9c 40 b2 5f ad 40
       2.1122427 -7.1555767 4.8751717 5.4179316

temporal_encoder.1.running_var f4 [32]
000000 e7 56 33 41 0d 7d c0 40 1f a0 3e 41 2c d6 ff 40
       11.208716 6.015265 11.914092 7.994894
000010 0e 4a 9b 40 cb 23 8a 41 86 05 a3 41 00 ea f3 40
       4.85279 17.267477 20.377697 7.6223145
000020 6c 75 e8 40 06 10 98 3f 4a 9f 55 40 93 b0 0f 3e
       7.2643337 1.187989 3.3378472 0.14032201
000030 8f 73 1b 40 2c a2 cd 41 78 c4 50 40 1c b5 ab 40
       2.4289281 25.704185 3.2619915 5.365858
000040 b6 6e 09 41 eb 92 d5 40 8e 1e 2f 41 37 4f 1f 3d
       8.589529 6.6741843 10.94496 0.038893905
000050 a5 1d e3 3f 0c 06 ba 3e 31 14 78 3f 4c 24 8f 40
       1.7743422 0.36332738 0.9690581 4.473181
000060 60 0b 54 3e 8a 25 09 41 af bf da 3d df 00 0b 3e
       0.20707464 8.571665 0.10681092 0.13574551
000070 bc 94 bf 40 d8 08 ac 41 62 83 2e 41 22 95 5f 41
       5.986906 21.504318 10.907076 13.973909

temporal_encoder.4.weight f4 [32, 32]
000000 8b b7 0b 3d aa 82 97 bb 9a 23 07 3e a0 b7 fe bd
       0.034110587 -0.0046237307 0.13197175 -0.124373674
000010 8a 2a 7e 3d 47 5e 1a be 76 2b a1 3b 9b ed 98 bd
       0.062052287 -0.15075026 0.004918511 -0.07467195
000020 f1 6d 87 bc 97 e5 05 be c7 a5 4e bd 20 b2 06 be
       -0.016531916 -0.13075863 -0.050451066 -0.13153887
000030 52 4b 07 be 6f 93 31 3e 9f 49 d2 bd a8 38 96 3d
       -0.13212326 0.17341398 -0.10267948 0.07335025
000040 52 b4 bb bd a9 a2 17 3e db 26 d8 bd a8 06 12 be
       -0.09165253 0.14808144 -0.10554286 -0.14260352
000050 a4 8e 2d 3d 98 01 9c bd af f0 ac 3d 05 ca f3 3d
       0.04237236 -0.076174915 0.08444344 0.119037665
000060 67 63 da bd 49 b1 d4 bc e7 96 b3 3d e7 b3 fb bc
       -0.10663491 -0.025963442 0.08769017 -0.030725433
000070 f2 51 fc bd b0 b7 6b bd 33 a9 10 3e 1a 78 85 3d
       -0.12320317 -0.057548225 0.14127044 0.06517048
000080 9e 5e 1b be 41 ab b4 bd f5 f2 8b 3d d4 98 5d bd
       -0.15172812 -0.088217266 0.0683345 -0.054100826
000090 ee 6e ec bc 84 04 eb 3d 46 e9 43 3d ce 6f 11 be
       -0.02886149 0.11475471 0.04782989 -0.14202806
0000a0 26 4e d7 bd 10 4d f7 3d bc 09 a3 3b 09 fe b6 3d
       -0.105129525 0.120752454 0.0049755257 0.08935172
0000b0 62 31 27 be c3 26 b4 bd 02 23 b3 bc d0 84 23 3d
       -0.16327432 -0.08796456 -0.021867279 0.03992158
0000c0 db 9e 85 bd 2e 4c 0d be 4b 12 64 3d bd f4 8c 3d
       -0.0652444 -0.13798591 0.055681508 0.068826176
0000d0 fb ad 75 bd ec 96 a1 bd 59 55 24 3d b4 b7 0e be
       -0.059980374 -0.07890114 0.040120456 -0.13937265
0000e0 87 11 6e 3d 6b 18 e3 3d 8a d6 31 bd 58 e6 bc 3d
       0.058122184 0.11088642 -0.04341749 0.09223622
0000f0 aa 41 42 be 25 41 37 bd 5f 88 0b 3d eb 3f 11 bd
       -0.18970361 -0.04473986 0.0340656 -0.035461348
000100 bb 8e a5 3d e4 b1 9e bd d4 86 08 3e f6 b0 e8 3d
       0.08083864 -0.07748774 0.13332683 0.113618776
000110 eb 6a 09 3b f2 28 6e 3d 9e 31 8e 3d 02 9d 55 3d
       0.002096827 0.058144517 0.069430575 0.052151687
000120 96 21 c0 bd 4a 48 17 bd e6 61 f1 bc ba f5 9a bb
       -0.09381406 -0.036934175 -0.029465627 -0.004729
000130 5d 3e 1b 3b fb 25 bc bd 58 53 10 be a7 34 b1 3c
       0.0023688294 -0.09186932 -0.14094293 0.021631552
000140 58 39 d5 bd d2 63 a2 bc 03 81 65 bd 3f 53 f2 3c
       -0.10411328 -0.019822989 -0.05603124 0.02958071
000150 48 32 0b be bb 6d 43 bc a3 33 41 bd 35 d3 24 bb
       -0.135934 -0.011928017 -0.047168385 -0.0025150303
000160 2e 5d 46 be 71 80 39 3b 4e ba 54 3e 99 db 0b 3e
       -0.19371483 0.0028305317 0.20774195 0.13657989
000170 bf aa 68 3b b7 16 11 be aa 58 12 3d 40 12 db bd
       0.0035502163 -0.14168821 0.035729088 -0.1069684
000180 31 c2 7c bd 84 dd 0b be 0f 88 76 bc 29 4d e5 3c
       -0.061708633 -0.1365872 -0.015047087 0.027990894
000190 40 12 f4 3d 0f ae af bc 53 ac aa bd c3 10 e7 bd
       0.119175434 -0.021445302 -0.083336495 -0.11282494
0001a0 17 01 0f 3e f9 c0 1b be ab 81 f8 bc d4 2c 0d bc
       0.1396526 -0.15210332 -0.030335268 -0.008616645
0001b0 c0 d8 c0 bd 89 db b5 bd a8 73 52 3e cd f4 33 be
       -0.09416342 -0.08879764 0.20551932 -0.17573853
0001c0 4a 88 d5 bc 3a 69 0b be 41 75 8b bd fc 71 55 3e
       -0.026065964 -0.1361436 -0.06809474 0.20844263
0001d0 7b be 12 3c 42 ee e4 3d ec 9c 98 bd 91 b6 e7 3b
       0.008956547 0.111782566 -0.074518055 0.007071324
0001e0 6a b4 57 bd 84 52 52 3d cf 0d ce 3c ff 07 36 3d
       -0.05266229 0.051348224 0.025153069 0.04444122
0001f0 d2 55 31 be af 47 01 be a5 f2 93 bd 04 0a b6 bd
       -0.17317894 -0.12625001 -0.07224015 -0.08888629
000200 f9 2e 35 bd 84 c7 3a bd 59 1e 16 bd 33 39 67 bd
       -0.04423425 -0.04560043 -0.036650036 -0.056451034
000210 21 7e 5a bd a7 2b bc bc 56 2d fb bb 9a 84 75 bd
       -0.053342942 -0.022970034 -0.0076653166 -0.05994091
000220 3b 85 a8 3d 0e 1b 30 3e 09 04 c0 bd 45 28 2a 3e
       0.08228537 0.1719782 -0.0937577 0.16616924
000230 d9 79 3f bd 76 2f c4 bd e0 b1 07 3e 90 2c 76 bd
       -0.046747062 -0.09579365 0.13251448 -0.06010109
000240 4e 16 5a bb db 32 f8 3d 4b 8e 6b bd a8 cf a6 3d
       -0.0033277455 0.12119075 -0.057508748 0.08145076
000250 e0 d1 9b bd a0 a3 0d 3b 94 dc 19 3e 3c 8d 05 3e
       -0.0760839 0.002161242 0.1502555 0.13042158
000260 30 3d 92 3d 4b db 8b 3c 52 b2 1d be 17 21 0d be
       0.07140577 0.01707234 -0.15400055 -0.13782154
000270 e5 41 27 bd 61 8b aa 3a 18 a3 10 3c 34 71 5f 3c
       -0.040834326 0.0013011509 0.008827947 0.01363783
000280 e5 57 c8 bd 8f 05 af 3d d0 a3 d7 bd f2 3b 5b bc
       -0.097823896 0.08545982 -0.10529292 -0.013380991
000290 ed 1b c8 bc bd 03 c8 3d fe 38 d8 3d 94 ba ef bd
       -0.024427379 0.09766338 0.105577454 -0.11705509
0002a0 84 c2 25 3b 17 89 8c bd 3f ed 0b ba 5f 3c bd bd
       0.0025292942 -0.06862085 -0.00053377816 -0.092400305
0002b0 39 6e 4f be 88 52 f4 3c 1d 44 75 be 34 8c 95 bd
       -0.2025689 0.02982451 -0.23951764 -0.07302132
0002c0 e5 e8 87 bd d8 dc 00 be 72 d9 4f 3d 9e c9 d4 3d
       -0.06636218 -0.12584245 0.05074448 0.10390018
0002d0 25 3d c1 bd 76 18 b5 3d 06 14 98 bd 2b 7b be 3d
       -0.094354905 0.08842556 -0.07425694 0.09300836
0002e0 94 45 ae bd df 2c 93 bd c9 e1 0e 3e 53 6b 1a bd
       -0.08509365 -0.07186293 0.13953318 -0.03770001
0002f0 0d d9 39 be 08 90 f9 3c dc 47 bb 3d 76 f4 22 be
       -0.18149205 0.030464187 0.091445655 -0.15913567
000300 a4 1b 3a bc 3e 03 fc 3c 1e 4d b9 bd 06 4d 09 bc
       -0.011359129 0.030763265 -0.09047912 -0.00838018
000310 96 93 47 3d 71 1b 26 be bf ad a7 bd 2e 70 ca 3d
       0.048724733 -0.16221406 -0.08187436 0.09884678
000320 6b 68 04 be ef bb 83 bd 41 04 76 3c 23 c6 2b 3d
       -0.12930457 -0.0643233 0.015015663 0.041937005
000330 65 b2 36 be 7d c0 de 3d 79 44 cc 3c 31 f2 99 bd
       -0.1784149 0.10876558 0.024934994 -0.075168975
000340 22 ee 0e 3d 16 14 02 3e 5f d9 25 3b ac 35 31 3b
       0.03489507 0.12702975 0.0025306565 0.0027040048
000350 a8 c0 08 3e 69 46 8c 3d c0 52 a0 ba 6e 93 03 3d
       0.13354743 0.06849367 -0.0012231693 0.03212302
000360 37 fc ce bc b3 b6 a2 3d 76 9a 2a 3a 22 8c 4f 3e
       -0.02526675 0.07945003 0.0006508002 0.202683
000370 89 c7 99 bd c6 9b d1 bd 2c ba bd bc 25 61 74 3d
       -0.075087614 -0.102347896 -0.023160063 0.059662957
000380 f7 23 7b 3d 20 f3 2e bd 5e 64 de 3d 5e ee 0c 3e
       0.061313596 -0.04271233 0.10858987 0.13762805
000390 a7 b7 d5 bd 19 3d 75 bd 8a 10 3e bd 80 53 97 3d
       -0.104354195 -0.05987272 -0.04640249 0.07388973
0003a0 4d 97 00 3e 5b 7d 57 3d 3e 46 3b 3d 5b d4 0e 3e
       0.12557717 0.052609783 0.045721285 0.13948195
0003b0 5f bf 85 bd d8 7f 4a bc 7e fc b9 3c ab 0a 09 3e
       -0.06530642 -0.012359582 0.022703405 0.13382976
0003c0 cc 1d 32 bc 16 8c 3f 3d e3 1b ee 3c 1d 23 23 3e
       -0.010871362 0.046764456 0.029066032 0.15931363
0003d0 44 76 f5 3d 02 e0 ad 3d a5 e2 e0 bd 81 8c 49 bd
       0.11985448 0.08489992 -0.10980729 -0.04920626
0003e0 77 ff 91 bd 06 5b fc bd 94 66 81 3e 9f 42 30 be
       -0.07128804 -0.12322049 0.25273573 -0.17212914
0003f0 a1 96 09 be 9d 11 48 3d c3 eb 5e 3c ba 08 d8 bd
       -0.13436367 0.048844922 0.013606015 -0.105485395

temporal_encoder.4.bias f4 [32]
000000 76 77 2e 3e 3d 8b 23 be fb 41 0c 3d aa 74 5d 3d
       0.17037758 -0.15971084 0.03424261 0.054066338
000010 ab ec fb bd b8 5e 23 3d 66 48 a8 bd 44 1e d7 3d
       -0.12301 0.039885253 -0.08216934 0.105038196
000020 46 ae 75 bd aa 51 31 be b6 63 e7 3d e6 24 bd bd
       -0.059980653 -0.17316309 0.11298315 -0.092355534
000030 04 53 90 bd ca 77 1a bc 84 85 53 3c 02 27 c4 bd
       -0.07047084 -0.009427974 0.012910251 -0.09577753
000040 ad 65 29 bd d1 77 34 3d 10 94 28 be ac 6a 13 be
       -0.04135673 0.04405958 -0.16462731 -0.14396161
000050 51 35 25 be b4 02 98 bd f4 3f 01 bd 9e 92 95 3d
       -0.1613362 -0.074223906 -0.03155513 0.07303356
000060 59 f1 ec 3d 3f c2 19 be 6b 38 ee 3d ed af 17 bd
       0.11569471 -0.15015505 0.116318546 -0.03703301
000070 80 a3 70 bd 79 13 7f 3d 11 94 82 3c c3 0c d5 bc
       -0.058749676 0.06227443 0.015939744 -0.026007062

temporal_encoder.5.weight f4 [32]
000000 a6 09 6b 3f 2c 57 72 3f d1 94 71 3f 0c 9d 6e 3f
       0.918116 0.94664264 0.943677 0.93208385
000010 d9 29 80 3f 0f 98 67 3f 6e 26 71 3f f1 54 74 3f
       1.0012771 0.904664 0.94199264 0.9544211
000020 ed 72 6f 3f a3 09 6d 3f c2 6a 78 3f bf a0 5d 3f
       0.9353474 0.9259283 0.970379 0.86573404
000030 6d 5b 6c 3f 21 47 6b 3f 8a f2 70 3f c1 84 64 3f
       0.92327005 0.9190541 0.94120085 0.89265066
000040 f7 b3 75 3f 14 bf 6e 3f 4c af 76 3f dd 63 6c 3f
       0.9597773 0.9326031 0.9636123 0.9233988
000050 8d 5c 65 3f 60 90 7f 3f a0 a6 6c 3f ac 35 84 3f
       0.89594346 0.99829674 0.9244175 1.0328879
000060 8e a6 6c 3f c2 22 7a 3f 4a 76 64 3f 51 65 66 3f
       0.9244164 0.97709286 0.89242995 0.89998347
000070 69 48 60 3f e9 28 61 3f 5d 05 6a 3f 33 a7 6c 3f
       0.8761049 0.8795305 0.91414434 0.92442626

temporal_encoder.5.bias f4 [32]
000000 26 44 8d bd 87 2d 3c 3c ca a7 37 bc 5f ee f7 bc
       -0.06897764 0.011485464 -0.011209438 -0.030265031
000010 21 e6 7f 3d 72 1c b6 bc d6 76 69 bc 10 22 f4 3d
       0.062475327 -0.02223036 -0.014249524 0.119205594
000020 15 fe 75 3c 68 35 2a 3c c5 43 38 3c 60 21 66 bd
       0.015014191 0.01038871 0.011246626 -0.056184173
000030 37 3e 0e bd a2 34 d8 bc 59 3f 41 bc d6 d5 6e bd
       -0.0347273 -0.026392285 -0.011794888 -0.0583094
000040 00 0e d4 3d d4 e8 88 3b 20 17 f2 3c 7c 9f 6f bc
       0.10354233 0.004178146 0.029552042 -0.014625426
000050 4e 5a a0 bd 10 f2 a8 3d 49 54 c2 bc d9 86 cc 3d
       -0.07829724 0.08249295 -0.02372183 0.09986658
000060 ab 02 d5 bc 43 7e 5e 3d f1 60 b2 bd 63 ff 34 bd
       -0.026002249 0.05431963 -0.08709896 -0.04418887
000070 80 d0 9d bd 3a fe b6 bd a6 e7 ba bc 92 a3 31 3c
       -0.07705784 -0.089352086 -0.022815537 0.010842221

temporal_encoder.5.running_mean f4 [32]
000000 4b 64 a8 bd a8 5c c2 be 2b 67 62 bd aa 5c 51 be
       -0.08222254 -0.37961316 -0.05527417 -0.20445505
000010 8c e2 ce bd 86 9c a6 be f5 0c 43 bd b0 4d b3 3e
       -0.10101804 -0.32541293 -0.04761978 0.35020208
000020 6a 79 04 bf df 40 12 bf 47 68 e7 3d d9 9f 38 bf
       -0.51747763 -0.57130235 0.11299186 -0.7211891
000030 22 fa 8a 3e b1 03 4e 3e 9d 61 ff bd ca 8d 62 3e
       0.2714396 0.20118596 -0.1246979 0.221244
000040 d9 4e f3 3d a5 93 30 3e 5b 59 7a be 17 c7 78 be
       0.11880273 0.17243822 -0.24448149 -0.24294697
000050 e1 9b 9c be 9f 81 b0 be af 05 1d bf 66 b4 23 be
       -0.30587676 -0.34473893 -0.613368 -0.15986785
000060 b2 03 b8 be 9e ac 70 be 85 49 4f be f6 d2 1c bd
       -0.3594032 -0.23503348 -0.20242889 -0.038287126
000070 4d 9e 59 bd 15 97 d1 be be 19 cd bd a0 bd 5b 3e
       -0.053129483 -0.4093558 -0.100146756 0.21459055

temporal_encoder.5.running_var f4 [32]
000000 66 5d 70 3e eb 01 2f 3e 6b a8 80 3e 3b 45 94 3e
       0.23473129 0.17090575 0.25128493 0.2895907
000010 3b 7c ac 3e c6 b5 a3 3e 99 7b 05 3e 32 4d 14 3e
       0.3368853 0.3197462 0.1303543 0.14482573
000020 d0 4c 4e 3e f4 17 01 3f f6 b2 ca 3e c5 0c 28 3f
       0.20146489 0.50427175 0.3958966 0.65644485
000030 14 92 c8 3e 72 e1 e9 3d 1e 34 d2 3e c2 ac 1f 3e
       0.3917395 0.114199534 0.41055387 0.15593246
000040 11 6f 56 3e e4 ae 23 3e c6 87 05 3e ef 7d 36 3e
       0.20940806 0.15984684 0.13040075 0.17821477
000050 a6 1e 19 3f fd 89 bd 3e e2 4e 87 3e 3f 67 60 3e
       0.5981239 0.3701934 0.2642737 0.21914385
000060 ea 6a 25 3f ef 3a a3 3e cb 9e 52 3e 11 aa 17 3e
       0.6461626 0.318809 0.20568387 0.14810969
000070 0a 9b 8f 3e 4e c7 ed 3d 03 91 2c 3f d5 81 90 3e
       0.28047973 0.1161028 0.6740877 0.28224054

graph_encoder.0.weight f4 [32, 8]
000000 3e 38 5e 3e 05 36 57 be 28 e7 3a 3e 9d 96 08 bb
       0.21701142 -0.210167 0.18252242 -0.0020841726
000010 b8 f8 be bd bf 94 24 be 87 a0 a8 3e d2 d7 1b 3e
       -0.09324783 -0.16072367 0.32934973 0.15219048
000020 e8 98 c5 be 86 9b 80 3e 5b 24 a1 bd 9b 5a 37 3e
       -0.3859322 0.25118655 -0.078682624 0.17905657
000030 de 9a b5 3e d7 ff 92 3e 5b 66 54 3e 6a 75 4e be
       0.35469717 0.28710815 0.2074217 -0.20161977
000040 05 eb 97 be be cf 12 3e 26 78 94 3e dd 3e 29 be
       -0.29671493 0.1433706 0.28997916 -0.16527887
000050 65 56 19 3e 60 9c 4b 3e 6c f7 4a 3d 8f 33 c6 bd
       0.14974363 0.19883871 0.049552366 -0.09677803
000060 dd 88 94 be ed a4 fe bc 35 89 6c 3e c8 e4 2f be
       -0.29010668 -0.031084502 0.23099215 -0.17177117
000070 7f 7e b2 be 72 ba 0e 3e bc 70 23 bc 84 23 49 3e
       -0.34862134 0.1393831 -0.009975608 0.19642454
000080 1c c8 07 be 9e 48 e5 bb 08 23 56 3e 88 a9 80 3e
       -0.1325993 -0.006997182 0.20911801 0.25129342
000090 0a bc a0 be 88 02 99 bc 0c 57 61 be 0c a6 bc bc
       -0.31393462 -0.018677965 -0.22005862 -0.023028396
0000a0 82 7c d2 3e 2c 0f 5a 3e 30 ff 34 3e a8 d8 84 bd
       0.41110617 0.2129485 0.17675471 -0.064866364
0000b0 77 35 04 bf 5c f6 ad bc 50 dc 2d 3d 5e 83 88 bd
       -0.5164408 -0.021235637 0.042446434 -0.06665681
0000c0 37 5d a2 3e e2 f9 3a be 77 76 58 3e 37 25 79 be
       0.31711742 -0.18259385 0.21138941 -0.24330603
0000d0 37 c3 93 3c 5f 22 05 3d 6e bd 3e bc 1f 42 7a 3c
       0.018037422 0.032503482 -0.011641843 0.015274554
0000e0 50 1b 51 3d 36 20 62 be 53 26 98 3d 38 42 e5 3d
       0.051051438 -0.220826 0.07429185 0.11194271
0000f0 7b c9 17 bd ee df 8b bd 8d dd dc 3c 2d c7 d4 be
       -0.03705738 -0.068298206 0.026961112 -0.4155821
000100 57 ab d2 be 7f 38 ee bd bd ab 71 bd 84 e0 8f be
       -0.41146347 -0.116318695 -0.059001673 -0.2810098
000110 cc 66 db 3e df 3a 0d be aa 73 51 39 eb f1 9a 3e
       0.42851865 -0.13791989 0.00019974881 0.30262694
000120 eb 70 3d 3e eb ea 8e 3e 43 22 98 3e 7f 36 98 3e
       0.18500106 0.27913603 0.2971364 0.29729077
000130 38 2b 87 be 22 3c c6 3d 47 d1 54 bd 4d 8b 8d 3e
       -0.2640016 0.09679438 -0.051957395 0.2764534
000140 5a 46 94 3e 2e 4d 84 3d 0e f1 89 3e 87 f4 97 be
       0.28959924 0.06460033 0.26941723 -0.29678747
000150 d7 59 01 be d1 97 37 be ba 71 00 bd 66 34 3a 3e
       -0.12631927 -0.17929007 -0.031358458 0.18184051
000160 3d 6e 53 3e 36 8a 1e be ff 11 85 be 0f 8b 5e 3d
       0.20647521 -0.15482411 -0.25990292 0.054331835
000170 54 26 bf 3e 3e 79 04 3e e3 c0 b2 3b f1 47 8e bd
       0.3733393 0.12936875 0.005455123 -0.069473155
000180 af eb 30 3e 67 db 41 3e 27 83 e1 be d0 a5 01 3b
       0.17277406 0.18931352 -0.44045374 0.001978267
000190 54 c7 b1 be af 8f b8 be c2 ab 23 be 25 d5 14 3e
       -0.34722388 -0.36047122 -0.15983489 0.14534433
0001a0 b7 b8 c1 be e3 ab cc 3d 2c 91 23 3e a9 d1 7d 3e
       -0.3783624 0.09993722 0.15973347 0.2478701
0001b0 a9 d2 97 3e 87 34 f7 bd 95 c1 a5 3e 1a 6e c1 bd
       0.29652908 -0.12070566 0.32374254 -0.09444828
0001c0 2e 3b 59 bd ca 1c 53 be a3 eb f1 bd e2 f3 b1 be
       -0.053034954 -0.20616451 -0.11812522 -0.3475638
0001d0 a7 7c a2 3c 27 68 dc bd 70 13 b8 3d 5b 5f 5b be
       0.01983483 -0.10762053 0.089880824 -0.21423094
0001e0 da f5 6b 3c 53 1d 1d be d3 39 06 3e 9d dd 99 3e
       0.014401877 -0.15343218 0.13107996 0.3005189
0001f0 1f 4e 56 bc 9d 10 3a 3e a0 cf 85 bd 63 96 92 be
       -0.013080149 0.181704 -0.06533742 -0.2863036
000200 43 32 61 be cd 19 4e 3e e8 9b 85 be 3d 33 18 3c
       -0.2199183 0.2012703 -0.2609551 0.00928956
000210 54 15 06 bd dd 77 ae be 62 0f a3 3e e8 65 0d be
       -0.032735184 -0.34075823 0.31847674 -0.13808405
000220 0d aa 9c bb 09 64 a8 3e 24 74 bd be 61 6d eb 3e
       -0.004781014 0.3288882 -0.3700267 0.45981887
000230 f8 4f ec 3d 8e d1 a8 bd e5 9b 46 3d a8 8a 71 be
       0.1153869 -0.082430944 0.048488516 -0.2358805
000240 b4 e7 cd bd a2 99 8e be 5b 03 8f be 2c b8 d0 3e
       -0.100539595 -0.27851588 -0.27932248 0.40765512
000250 39 91 83 3e 3b ce 2a be e2 d1 39 3d 67 aa ba 3d
       0.25696734 -0.16680233 0.045366175 0.09114533
000260 e2 20 ba 3d 4b 5d 4e 3e da 15 af 3e b8 89 18 3e
       0.09088303 0.20152776 0.3419636 0.14896286
000270 c2 b7 db be bb 91 18 3c 34 70 a3 3c 6d 93 b6 3c
       -0.42913634 0.009312089 0.019950964 0.022287095
000280 67 ae 31 be de 57 c2 3d 21 e9 61 bd a3 33 a5 3c
       -0.17351685 0.094894156 -0.05515397 0.020166224
000290 54 e8 2d be fd cc 83 bc 4b 41 e1 bc 2c 59 18 3c
       -0.16983157 -0.016088957 -0.027496954 0.009298604
0002a0 02 a0 38 be 43 1f 89 bc 69 db af be fb 1e a9 3d
       -0.18029788 -0.01673854 -0.34347084 0.08257862
0002b0 0b 75 81 3e f1 e6 cf bc a7 26 32 be 45 4b db bd
       0.2528461 -0.025378676 -0.17397557 -0.10707716
0002c0 a0 a4 15 be 7a 12 2e 3e 2d da 44 3e f4 41 cd bd
       -0.1461358 0.16999236 0.19223852 -0.10022345
0002d0 d9 d7 8f bd 6b 01 64 3d 02 a5 48 3e 84 52 05 be
       -0.070235915 0.055665415 0.19594195 -0.13019758
0002e0 f7 af 29 3e f3 04 81 3d 4e a7 31 3e 4b 52 4f bb
       0.16571032 0.06299772 0.17348978 -0.0031634744
0002f0 f4 39 6d bd 43 ee 4b 3e 0b 9e 61 be bf 0d b6 3e
       -0.057916597 0.19915108 -0.22032945 0.35557362
000300 e1 54 d6 bd 3e bc 31 3e df 2c 54 3b 10 6c 62 be
       -0.10465408 0.17356965 0.0032375378 -0.22111535
000310 79 7b 59 be 81 77 72 be f2 64 a9 3e c5 49 ce be
       -0.21238507 -0.236784 0.33084828 -0.40290657
000320 7b 40 40 3d ab a9 57 be 73 d4 85 be 5c a0 3c be
       0.046936493 -0.21060817 -0.26138648 -0.18420547
000330 b6 50 0f be 9a 51 19 3e fd 91 9f be 89 59 de bd
       -0.13995633 0.14972535 -0.31166068 -0.10856921
000340 6c d3 fc 3d 0f fd a5 3e 23 db c5 be 89 e1 83 3e
       0.12345013 0.3241963 -0.3864375 0.25758007
000350 93 66 c9 3e bf 33 43 bd b0 f5 2e bd e6 ad 84 3d
       0.3933607 -0.04765677 -0.042714775 0.06478481
000360 35 2b 3d be 4c ab 5f be 71 08 ad 3e c5 70 df bd
       -0.18473513 -0.21842688 0.33795503 -0.10910181
000370 ea 0f 91 3e 36 cb 03 3e 41 94 18 3e d5 35 29 3e
       0.28332454 0.12870488 0.14900304 0.16524442
000380 d8 1f f6 be 1f d9 86 be f3 be cc 3d bc 47 93 3d
       -0.4807117 -0.26337525 0.09997358 0.071914166
000390 4b b3 a2 3e 12 46 9e 3e 11 a0 68 3e b3 0f cc 3d
       0.31777415 0.30912834 0.2271731 0.09963932
0003a0 cc e5 6a 3d 14 22 e2 bd 67 e8 f6 bd 05 f7 bc be
       0.057348058 -0.11041656 -0.12056046 -0.3690721
0003b0 4e ea 88 3e 7e 79 07 3d eb 04 fd 3c 93 8b 4d bd
       0.2674126 0.03307485 0.030886134 -0.050181936
0003c0 4a ef 36 3e 52 11 4a 3d 62 03 a2 3e 61 9c 81 be
       0.17864719 0.049332924 0.31643206 -0.2531462
0003d0 0c f7 45 3e 78 ad ad be 74 ab b7 bd d2 ff 71 be
       0.19332522 -0.3392141 -0.08968249 -0.23632744
0003e0 ca 7e ba be 8e a1 9d 3e 0d eb 93 3e a8 12 06 be
       -0.36424857 0.3078732 0.28890267 -0.13093054
0003f0 b9 c1 e6 3e 28 f7 41 3b 83 2f 01 bd ce 8c dd 3d
       0.45069674 0.002959678 -0.03153945 0.10817872

graph_encoder.0.bias f4 [32]
000000 5b 46 a9 bd 2f 23 9e bc a9 19 55 3e 4a 12 8f bd
       -0.08265372 -0.019303886 0.2081057 -0.0698591
000010 80 a4 9b 3e b3 9f 8d be 70 ba 45 bc 9b 25 7c 3e
       0.3039894 -0.27660903 -0.012068376 0.2462372
000020 f5 1d 5a 3e 9e 77 88 3e 8a d0 7c 3e ea ff 2c 3e
       0.2130049 0.2665376 0.24688926 0.16894498
000030 da d9 15 be 25 a5 94 be 83 0b 46 3d e6 36 13 3c
       -0.14633885 -0.29032245 0.048350822 0.008985257
000040 ca 1c 50 3e 9f d5 02 3d 1f 42 ad 3e 0a 1b a1 3e
       0.20323482 0.031942006 0.3383951 0.31465942
000050 13 4d 40 be 73 48 06 be f9 bd 5e be c6 de 9a be
       -0.18779401 -0.13113575 -0.21752156 -0.30248088
000060 9d 0c 0f bd 05 72 4d bd df ba b9 3c 8a ed 48 bd
       -0.03492414 -0.050157566 0.022672115 -0.04905466
000070 27 73 57 be f5 a4 06 be fe 53 e9 3d 0c fa 56 b9
       -0.21040021 -0.13148864 0.11392973 -0.0002050178

graph_encoder.1.weight f4 [32]
000000 09 9c 72 3f 1d 17 6d 3f 6a 82 74 3f 14 39 7e 3f
       0.9476934 0.92613393 0.95511496 0.99305844
000010 36 64 7f 3f d5 c2 85 3f 63 8f 7f 3f 1d 95 80 3f
       0.99762285 1.0450083 0.99828166 1.0045506
000020 d1 5e 8a 3f ad 95 74 3f e9 00 86 3f 16 77 73 3f
       1.0810186 0.9554089 1.0469028 0.95103586
000030 5b ef 7a 3f 23 8e 6e 3f 73 8b 77 3f f6 98 76 3f
       0.9802148 0.93185633 0.9669716 0.9632715
000040 e6 3e 72 3f a4 17 83 3f df 91 79 3f 10 e8 84 3f
       0.94627225 1.024159 0.97488207 1.038332
000050 a9 07 83 3f 28 c3 85 3f 6e 01 72 3f bf 70 7f 3f
       1.0236713 1.0450182 0.9453343 0.9978141
000060 db e4 7d 3f f8 ca 7c 3f e9 16 82 3f 2d ed 77 3f
       0.9917733 0.98747206 1.0163242 0.96846277
000070 3a 97 74 3f f4 cb 81 3f 6e 6d 84 3f 8c c7 79 3f
       0.95543253 1.0140367 1.0345895 0.9757011

graph_encoder.1.bias f4 [32]
000000 84 57 95 bd d1 70 42 be 9d c5 f7 bd 83 8a ee bc
       -0.07292083 -0.18988349 -0.120982386 -0.029118782
000010 5e 9c 11 be 36 24 69 bd bb 17 03 be 67 7c 0f be
       -0.14219806 -0.0569193 -0.12802021 -0.140123
000020 be a3 25 3e a3 3c d0 bd 9e f8 83 bd 85 98 1d be
       0.16175744 -0.101678155 -0.06443904 -0.15390213
000030 1d d6 66 be 29 a8 d3 bd c8 9b 14 be 6d b5 9a bd
       -0.22542615 -0.103348084 -0.14512551 -0.075541355
000040 b0 bd 73 3c c3 ea d4 3d a5 1f b5 bb c2 95 d7 3d
       0.014876768 0.1039634 -0.005527454 0.10526611
000050 2c 7b 2e be fd dc 12 be 12 0c e5 bd 73 35 6f bd
       -0.17039174 -0.14342113 -0.11183943 -0.058400583
000060 f8 57 cc bc cc c5 fd bd 5b df 21 bd 75 ec 13 be
       -0.02494429 -0.123912424 -0.03951965 -0.1444567
000070 e8 11 1f be f6 4f 61 bd 48 f1 11 be c3 70 29 be
       -0.15534174 -0.055007897 -0.14252198 -0.16546921

graph_encoder.1.running_mean f4 [32]
000000 68 f6 7b 45 a3 9b f5 45 42 e4 28 45 1a b9 a3 44
       4031.4004 7859.4546 2702.266 1309.7844
000010 60 23 7c c5 bf b9 e3 c4 ab 64 10 c4 e4 e7 35 c5
       -4034.211 -1821.8046 -577.57294 -2910.4932
000020 ae fd 91 43 58 e1 27 45 59 32 52 c5 44 f0 2b 45
       291.98187 2686.084 -3363.1467 2751.0166
000030 8d 9d f0 c5 70 02 9d 45 41 f3 29 c5 87 5d 26 44
       -7699.694 5024.3047 -2719.2034 665.46136
000040 7e 65 98 c3 e4 6e 96 43 6a 28 b7 44 46 ae b0 c2
       -304.7929 300.86633 1465.263 -88.34038
000050 22 66 84 c4 79 1e 35 c5 46 ab 21 45 59 a9 96 44
       -1059.1917 -2897.9045 2586.7046 1205.2921
000060 f7 c2 ec c4 07 f6 9d c5 5c dc 9d 44 c3 46 b4 45
       -1894.0927 -5054.7534 1262.8862 5768.845
000070 d0 a4 1b 46 fa 5a 3a c2 02 88 ff c5 43 9f 87 44
       9961.203 -46.588844 -8177.001 1084.9769

graph_encoder.1.running_var f4 [32]
000000 70 af a3 49 f6 bb 7f 4a c1 89 1e 49 60 38 2f 48
       1.34091e+06 4.1899495e+06 649372.06 179425.5
000010 ea 98 96 49 6d 35 4d 48 a1 f8 43 47 d7 9c 09 49
       1.2336932e+06 210133.7 50168.63 563661.44
000020 64 44 18 48 47 3b 0b 49 23 91 46 49 f9 eb f3 48
       155921.56 570292.44 813330.2 499551.78
000030 b1 b2 7b 4a b0 63 e3 49 29 0b 10 49 21 b2 46 48
       4.1238202e+06 1.862774e+06 590002.56 203464.52
000040 00 8b 12 49 3b a3 e7 47 92 33 96 48 8f fe f6 46
       600240.0 118598.46 307612.56 31615.28
000050 37 13 8d 47 f3 ee 18 49 4a 82 24 49 09 b8 d6 48
       72230.43 626415.2 673828.6 439744.28
000060 c3 6c 68 49 9c d8 db 49 ee c8 21 48 63 1c fa 49
       952012.2 1.8009795e+06 165667.72 2.0489084e+06
000070 0d b2 bd 4a 25 36 e8 47 20 e5 7e 4a 44 10 b2 47
       6.2159425e+06 118892.29 4.1762e+06 91168.53

graph_encoder.4.weight f4 [32, 32]
000000 1a 81 1c 3e 00 99 bd 3d 95 88 24 be 0c 01 65 be
       0.15283623 0.09257698 -0.16067727 -0.2236368
000010 50 5c d1 bd ce 56 ce bd fc 4a 8d 3d 78 dd ec 3c
       -0.10222685 -0.100751504 0.06899068 0.028914198
000020 82 3a 84 3d dd 2d ed bd 2b 2e a0 3d 1d d8 f9 bd
       0.06456472 -0.11581013 0.07821306 -0.121994235
000030 3d b5 96 3d 9c 22 d2 3c 51 1b d6 3d b6 8a 48 3d
       0.07358787 0.025651269 0.10454429 0.04896041
000040 fd 65 25 3e 2b 3f ac 3d 1e d6 46 3d a3 bf 2b be
       0.16152187 0.08410486 0.04854404 -0.16772322
000050 a4 2e 9a bd 0f 3c 91 bd 50 21 b7 bc ee 1b 14 be
       -0.07528427 -0.070915334 -0.022354752 -0.1446378
000060 a9 b2 09 3e e1 2b 64 3d 96 60 27 3d 59 ad 15 be
       0.1344706 0.05570591 0.040863596 -0.14616908
000070 a3 c3 19 be bf 32 0f 3e 14 89 e1 3d 9d 64 4d 3c
       -0.15016036 0.13984202 0.11012474 0.012536195
000080 b3 0a 86 bd 6d b3 c1 bd e6 45 37 be 34 3c e8 3c
       -0.065450095 -0.09458051 -0.17897758 0.02834902
000090 07 30 24 3e 42 79 3b 3e c8 05 2d bd c3 1e 0e be
       0.16033946 0.18307975 -0.04224184 -0.13878922
0000a0 b4 ad a1 bd ba 74 f4 bd e6 1c c6 3c 27 b0 8b bb
       -0.07894459 -0.11936326 0.024183702 -0.0042629424
0000b0 53 13 a7 bd 9c 68 4f bd a6 0f 8b 3c 5b 0f 9b bd
       -0.08157983 -0.050636873 0.016975235 -0.07571288
0000c0 45 b3 8c 3c 01 ec 2b 3c 11 e5 4c 3e 71 f4 b6 3d
       0.017175326 0.010493279 0.20009257 0.08933342
0000d0 86 a5 30 bb 78 d4 60 be 4a 18 26 bc 08 3d db bd
       -0.0026954128 -0.2195605 -0.010137627 -0.10705
0000e0 b5 1f 56 3d a7 ca d9 3d 65 cf 88 bc 91 3b b8 bd
       0.052276332 0.10634356 -0.016700456 -0.089957364
0000f0 c2 66 ab bd e3 b9 56 bc 45 b4 2d 3d 2b 27 bb 3d
       -0.08369209 -0.013105842 0.042408247 0.0913833
000100 83 f6 00 3e e4 7e 03 3c ed 8d ed 3d e7 80 f4 3d
       0.12594037 0.008025859 0.11599336 0.11938649
000110 23 84 2d be bd 7c 0e be 4c 55 94 3c 4b 83 2b bb
       -0.16944937 -0.13914771 0.018107079 -0.0026170786
000120 b6 db 59 3e 70 45 68 bd 47 49 e0 3c 58 8b ef bc
       0.2127522 -0.056706846 0.027378691 -0.029241249
000130 c9 75 39 be f4 b5 de bd 92 5c d5 bd d8 69 a6 bc
       -0.18111338 -0.108745486 -0.10418047 -0.020314142
000140 31 6d 0e be f4 34 79 be 1c a7 4a be d6 67 aa bc
       -0.1390884 -0.24336606 -0.1979031 -0.020801466
000150 46 40 34 be 5b bf dd bd 2a ac 72 bc fd 66 f4 3d
       -0.17602643 -0.10827514 -0.014811555 0.11933706
000160 ad 5f 91 3d 51 5a 85 3a 50 e4 05 be 95 bc 37 3d
       0.07098327 0.0010174011 -0.13075376 0.04485758
000170 6f 53 d0 bd 61 00 7c bc 15 a3 2a bd 47 1c 84 3c
       -0.10172164 -0.01538095 -0.041659433 0.016126765
000180 60 19 f9 3d 99 79 27 3e 9f 6f 87 3d 2d 0b 35 3e
       0.12163043 0.1635498 0.06613087 0.17680044
000190 5b 39 3a be 19 9c 0d 3d 8f de 0a be 0f cd a1 3d
       -0.18185942 0.034572694 -0.13561462 0.0790044
0001a0 1d 70 a6 bd 37 15 36 3e 2a c7 3b be 16 6b af bd
       -0.08126853 0.1778153 -0.18337694 -0.08565347
0001b0 8b f2 83 be 86 0a 97 bd 7e 05 da 3d 0e cf 1f 3e
       -0.25770983 -0.07375054 0.10645579 0.15606329
0001c0 73 34 d5 bd 84 75 41 bd 65 0e a9 3d 86 36 de 3d
       -0.104103945 -0.047231212 0.08254699 0.10850243
0001d0 07 c2 6c be 2b 84 67 be 2f 91 2c 3e 78 3d 17 bd
       -0.2312089 -0.22609012 0.16852258 -0.036923856
0001e0 d3 37 fb bd 5d ef 3c be 3f 01 cb bd 55 6f 9b bb
       -0.12266507 -0.18450685 -0.09912347 -0.0047434964
0001f0 e7 de fb bb a1 83 ba 3b d9 f4 24 be 9f 35 00 be
       -0.007686484 0.005691961 -0.16109027 -0.12520455
000200 3e e1 dc 3d 23 38 fc bd c2 89 4e bd 2a 76 3a be
       0.10785149 -0.12315395 -0.050424345 -0.18209139
000210 ae b6 c9 3d fe 95 37 3d 22 cc e1 bc 58 3b 3e bd
       0.098492965 0.044820778 -0.027563158 -0.046443313
000220 81 b7 d8 bd bc 9b 8a 3c f8 ec 5e 3d 2b d9 b5 bd
       -0.105818756 0.016919963 0.05442521 -0.08879312
000230 c2 2e 5b 3d 7a b0 d9 3c ed e5 19 bb d1 42 3e bd
       0.05351139 0.026573408 -0.0023482994 -0.04645044
000240 c9 56 f1 bb d8 93 37 3e d3 31 ba bd 9d 5c 88 3d
       -0.007365082 0.17927492 -0.090915345 0.066582896
000250 a0 b0 0c 3e 34 77 ed 3d dd 65 03 be 7f 20 f5 bd
       0.13739252 0.11595002 -0.12831827 -0.11969089
000260 72 bf 85 3b f5 85 4b bd 69 9a d2 3d 61 b1 5d bd
       0.00408166 -0.0496883 0.10283358 -0.05412424
000270 20 60 f0 bc 77 fb 99 bd e4 11 e4 bc b5 5d 8a bd
       -0.029342711 -0.07518666 -0.027840562 -0.067561544
000280 d7 47 33 b8 60 63 b9 bd 81 6d fa bd 04 b4 b8 3d
       -4.274383e-05 -0.090521574 -0.122279175 0.0901871
000290 bf af 2a 3c 2b f8 00 3e af 3c 0d be 57 b4 2c be
       0.010417878 0.12594669 -0.1379268 -0.16865669
0002a0 99 ca d6 3d 08 83 06 3e b8 b0 2e bd da 55 51 be
       0.10487861 0.13135922 -0.042649 -0.20442906
0002b0 9c ef b9 3d bc d9 58 be a8 e1 4f 3d 54 c8 d9 3c
       0.09078905 -0.21176809 0.050752312 0.026584782
0002c0 56 42 6c 3b 5f b4 32 be 8f a0 0a 3d 91 67 19 3d
       0.0036050281 -0.17451619 0.033844527 0.037452284
0002d0 69 3a 11 3e 67 ab 37 3e 2b f7 0d be fa cd 77 bd
       0.14182438 0.17936479 -0.13863818 -0.06049917
0002e0 80 17 19 be 2b 87 bb bd ea a7 80 3d 71 08 4a be
       -0.14950371 -0.091566406 0.06282027 -0.19729783
0002f0 5a 47 0a be ea 89 85 3d dd 68 ae bd e6 f8 a5 bd
       -0.13503781 0.06520446 -0.08516095 -0.08104114
000300 53 29 32 be 03 38 c4 bd 63 c4 88 bc fa d8 53 3d
       -0.17398576 -0.09580996 -0.016695207 0.051720597
000310 ec 56 c5 bd 56 03 cd bd cf af 16 3d 7e 8b a6 3c
       -0.0963572 -0.10010402 0.036788758 0.020330187
000320 4c 47 3e bd 30 b0 62 bb b2 92 0f be e7 3c 17 be
       -0.046454713 -0.003458988 -0.14020804 -0.14769326
000330 01 2a ba bc 6c 57 ed 3d 6f 23 c6 3d 0b 3f 38 3c
       -0.022725107 0.1158894 0.09674727 0.011245499
000340 92 67 93 3d a4 4e 26 be fd 8e db 3d 0a a3 a5 3d
       0.07197489 -0.16240937 0.10720632 0.08087738
000350 a3 38 94 bc e4 5f fc bd 77 dc 35 3e 88 20 2c bd
       -0.018093413 -0.12322977 0.17759882 -0.04202321
000360 b9 b9 30 3d f3 db 16 be 63 05 2f 3e 39 cb 1d 3e
       0.04314587 -0.14732341 0.17091899 0.15409555
000370 bb 54 33 3e 1d 8f e2 bd 1a 32 08 be 26 45 df 3d
       0.17512791 -0.11062453 -0.13300362 0.10901861
000380 37 4f 76 3d c9 4e 63 3d ad fa 35 3e 98 64 46 3d
       0.06013414 0.055495057 0.17771406 0.048435777
000390 e0 a3 1c 3d 26 e4 70 3d 02 e5 04 be 32 eb cc bd
       0.03824222 0.05881133 -0.12977985 -0.100057974
0003a0 71 3c 51 bd 45 36 fe bd da 68 c0 bd 5e 83 f7 3d
       -0.051083032 -0.12412695 -0.09394999 0.12085603
0003b0 e7 f7 2e be ea 59 42 3d d3 d1 e7 bc 10 34 97 bb
       -0.17086755 0.04744903 -0.028298294 -0.0046143606
0003c0 4b e4 8c 3d a5 49 aa 3d 8c bd 80 3d ed 64 0c 3e
       0.06879481 0.08314828 0.06286153 0.13710375
0003d0 f0 6f 39 bd 87 4f e0 bd a7 ba 37 3e 32 a1 3d be
       -0.045272768 -0.10952669 0.17942296 -0.18518522
0003e0 cf c3 fe 3d 2c 9d dc bd db 68 cb bc 10 7d 6b bd
       0.12439691 -0.10772166 -0.024830272 -0.057492316
0003f0 8d 96 bb bd 55 a9 10 3e 49 44 59 bd e3 73 08 be
       -0.09159575 0.14127095 -0.053043637 -0.13325457

graph_encoder.4.bias f4 [32]
000000 92 f5 8c bd 57 be 90 3d 5d 6c 99 bc 3b c7 2c 3e
       -0.06882776 0.070675544 -0.01872843 0.16872875
000010 5b fc 55 3d bf 99 15 3e 36 1f e2 bc 93 e4 27 be
       0.052242618 0.1460943 -0.027602773 -0.16395788
000020 44 40 7b bd 35 73 63 bd a0 c7 24 3d 85 54 0a bd
       -0.061340585 -0.05552979 0.04022944 -0.03377201
000030 90 34 a0 bd 05 a1 1f be 64 41 28 bd 19 7f 4a 3d
       -0.078225255 -0.15588768 -0.041077986 0.049437616
000040 00 1a d8 bd 0c e8 c1 3d ba 57 ae bd 1a 0f 65 3d
       -0.10551834 0.094680876 -0.08512826 0.055922605
000050 3f f8 43 3d 59 1c 89 bc 06 31 54 3d ea a3 56 bd
       0.047844168 -0.01673715 0.051804565 -0.052402414
000060 77 6f a5 3d b6 13 03 3d 94 54 ef bd ec b7 21 3d
       0.08077901 0.03200122 -0.11686054 0.039482042
000070 7c 6c ba 3d 0f b5 94 bd 1d d3 ad bd 70 cd 09 3d
       0.09102723 -0.07261097 -0.08487532 0.033643186

graph_encoder.5.weight f4 [32]
000000 20 c3 80 3f d7 d8 82 3f 8a a9 84 3f 3f 8f 87 3f
       1.0059547 1.0222424 1.0364239 1.059059
000010 64 f8 80 3f e4 8f 81 3f 75 3e 80 3f f6 af 86 3f
       1.0075803 1.0122037 1.001906 1.0522449
000020 d7 9a 8a 3f e1 98 8a 3f 30 8d 7f 3f de 33 76 3f
       1.0828503 1.0827905 0.9982481 0.96172893
000030 2d fa 8a 3f ee 24 7c 3f f5 1b 7b 3f 92 45 8b 3f
       1.0857598 0.9849385 0.98089534 1.0880606
000040 3d a3 8b 3f 1f 62 88 3f 3a d6 73 3f 5d bf 87 3f
       1.0909191 1.0654944 0.9524876 1.0605274
000050 e1 95 71 3f ba f4 88 3f b8 b4 80 3f e1 d2 87 3f
       0.9436932 1.0699685 1.0055151 1.061123
000060 1b 65 84 3f c3 0b 80 3f 6f c5 88 3f 71 bd 76 3f
       1.0343355 1.0003589 1.0685252 0.96382815
000070 70 96 84 3f b4 ba 81 3f 05 73 8e 3f fc 08 71 3f
       1.035841 1.0135102 1.1128851 0.94154334

graph_encoder.5.bias f4 [32]
000000 9d 9f ef 3d 2e f1 2c bc c5 93 63 3d 19 26 10 3e
       0.11700366 -0.010555549 0.055560846 0.14077033
000010 f5 f4 db 3c 36 37 b1 3d da 40 23 bc 31 03 fc 3d
       0.026850203 0.08653109 -0.009964192 0.12305296
000020 63 d5 ff 3d 6b b4 1f 3e 68 bc f5 3d 74 09 7d bd
       0.12491872 0.15596168 0.11998826 -0.061776593
000030 3c d4 17 3e b7 b8 c4 bc 56 b0 96 3c bc 00 21 3e
       0.14827055 -0.02401386 0.01839463 0.15722936
000040 9c 1e e3 3d ac e8 1f 3e ee 91 c9 3d f5 57 5a 3e
       0.11089823 0.15616101 0.09842287 0.21322615
000050 c6 2c 86 3d b5 6b 81 3e 12 4e 00 3e 59 a6 20 3e
       0.065515086 0.25277486 0.12529781 0.15688457
000060 a9 14 23 3e 15 83 ba 3c de 38 1e 3e b8 af 12 3e
       0.1592585 0.022767583 0.1545138 0.14324844
000070 da d7 ab 3d b9 57 ca 3d 02 2c ef 3d 32 76 ef 3d
       0.0839078 0.09880013 0.11678316 0.11692466

graph_encoder.5.running_mean f4 [32]
000000 2f 75 cd bd a1 9f 07 bd dd 4c c8 be a8 c0 15 be
       -0.100321166 -0.03311122 -0.39121142 -0.14624274
000010 56 ce b6 bc 15 cf 04 be a0 15 f3 bd 38 5b 1b be
       -0.022315186 -0.1296962 -0.11869359 -0.15171516
000020 69 bb d7 bc 27 a8 d9 bc 46 76 22 be 44 27 84 bd
       -0.026334481 -0.02656944 -0.1586543 -0.06452802
000030 b3 87 fb bd f8 b8 fc be 5d cf ef bc 31 54 80 be
       -0.12281742 -0.4935987 -0.029273683 -0.25064233
000040 e3 18 e6 be a7 8a d5 bd 27 7e 41 3e a3 82 2b be
       -0.44940862 -0.104268365 0.1889578 -0.16749053
000050 1a ae 57 bd 11 8d 45 3d d0 3a e9 bc e4 98 ce 3a
       -0.05265627 0.048230235 -0.028470427 0.0015762118
000060 4b 1b 20 be 9d b9 ba bd d0 7b 07 be 28 e9 0c be
       -0.15635411 -0.09117434 -0.13230824 -0.13760817
000070 e4 a4 87 3d 54 fd 16 3c d9 0f 67 be 76 6c fb 3d
       0.06623247 0.009215672 -0.22564639 0.12276547

graph_encoder.5.running_var f4 [32]
000000 5b 8e c1 3e 87 12 39 3e 04 55 c3 3e 40 7c 4e 3f
       0.3780392 0.18073474 0.381508 0.8065834
000010 8c dc 91 3e 0a 3a da 3e c2 73 95 3e a9 2e 9c 3e
       0.28488576 0.42622405 0.2918988 0.3050435
000020 ca cc 92 3e 36 e9 1e 3f c4 48 85 3e 32 a3 9e 3e
       0.28671867 0.620746 0.26032078 0.30983883
000030 26 3f f5 3e 45 f2 86 3e 15 9d d1 3e 53 f9 e3 3e
       0.4789974 0.26356712 0.40940157 0.44526157
000040 58 b6 94 3e 13 06 f6 3e 84 b0 14 3e 7d 85 5d 3e
       0.29045367 0.4805151 0.1452046 0.21632953
000050 48 a2 f6 3d 87 db a9 3e 9c 82 b4 3e f8 b4 dd 3e
       0.120426714 0.331753 0.35255897 0.4330213
000060 85 a1 ef 3e 68 4f 2b 3e d7 bc 02 3f d7 de 04 3f
       0.46802917 0.1672951 0.51069397 0.51902527
000070 8e 11 f8 3e 44 a0 18 3f a5 f9 df 3e 18 2c 4a 3e
       0.48450893 0.59619546 0.4374515 0.19743383
